ML Racing/Assets/NNModels/default.onnx (onnx, 93919 bytes, 7 tensors)

network_body._body_endoder.seq_layers.0.weight f4 [128, 47]
0.12492989 -0.0014055518 0.088472426 -0.10026211 0.069810644 -0.03547819 0.16536818 -0.0044205
-0.2825795 0.26113063 0.14495291 0.17964934 0.13919404 0.13478778 0.08370405 -0.045210738
0.104343444 0.0017894425 0.07561292 -0.31873652 -0.21254644 0.2560987 0.14873792 -0.13573802
0.16533352 0.037159268 -0.65003157 -0.02706487 0.28433532 -0.2880578 -0.2557007 -0.36299485
-0.15675825 0.13695706 -0.03587335 0.019205648 0.19782737 0.31856254 -0.0055141626 0.030955117
0.049083214 0.009150277 0.065521054 -0.121488936 -0.23846085 -0.0010139188 0.34733817 0.21589911
0.17111285 0.028378302 0.27986526 -0.10121233 -0.1177759 0.059786446 -0.20717107 -0.09220148
0.060016196 -0.029873155 0.035493236 0.2810716 -0.2334547 -0.064569324 0.23092894 -0.27029043
-0.038315848 0.40653676 -0.014518495 0.13433625 -0.11009767 -0.44909644 0.27073595 0.062410288
-0.0568146 -0.27069375 -0.13084523 0.17206128 -0.0002932261 -0.15388316 0.20126759 -0.018262306
0.018834233 -0.0632696 -0.18357304 0.07571394 -0.22541554 -0.08387776 -0.030142 -0.16282539
-0.15086305 0.2931188 -0.026450876 -0.021889638 0.16166016 -0.0356351 -0.06146813 0.031796936
0.27691582 0.10525568 0.01751616 0.16315396 0.068038695 0.12685792 0.12630038 -0.19806744
-0.013308751 0.22631711 0.1667567 0.061696492 0.011580603 0.037311163 0.123556614 -0.0410673
-0.0926876 0.05756352 0.04707426 0.10615935 0.11258567 0.008988288 -0.08160501 0.21483637
-0.2886999 -0.2952725 -0.17461418 0.16047345 -0.26839393 -0.24785204 0.5060956 -0.05656892
-0.19865733 -0.064481825 -0.27546585 0.030246483 -0.26456484 -0.15999418 -0.58090454 0.09750407
0.22097504 -0.3813984 -0.07537647 0.009268615 0.16359577 -0.19003479 -0.33396128 0.18063222
0.06786541 -0.27150393 -0.22572128 0.29012093 -0.093951486 0.010193109 0.06427014 0.079957575
-0.4394059 -0.0006053245 -0.17678925 -0.10138651 -0.11042947 0.28216788 -0.07624414 -0.20715965
-0.17804112 0.036774687 0.0919131 0.15513203 0.28611463 0.22546498 0.13272062 -0.4302096
-0.3821306 0.02652716 0.39563224 -0.095125295 0.11198437 -0.21132493 -0.014548304 0.047265828
0.18546008 0.51377594 -0.07510147 -0.19174723 0.0011925604 0.012905368 0.026039517 -0.23215064
-0.14609255 -0.02963811 0.16692604 -0.16000731 -0.21194415 0.13782908 0.15981618 -0.010895627
-0.12368104 0.099816136 0.3011024 -0.06664607 0.08341983 0.014635668 0.01811324 -0.12553608
-0.17841639 0.28857633 -0.062146656 -0.26469433 -0.05034856 0.24525787 0.22466816 -0.2022438
0.32870972 0.14307664 -0.005885286 -0.074266724 0.13342781 -0.16964513 -0.4445704 0.080954306
-0.06881137 0.4038287 -0.05480887 -0.52357113 0.0028356982 -0.142658 0.41820446 0.029106475
-0.23086938 0.02471326 0.03733402 -0.07082779 -0.16683547 0.16608663 0.4116139 -0.25276038
0.011489286 -0.82323474 0.045827705 -0.94506407 -0.4073007 0.30043224 0.06492337 -0.39540467
0.040278725 0.2733673 -0.26544544 -0.1461558 0.29452124 -0.21105641 -0.022496458 -0.022099692
-0.08400973 -0.4406055 0.13771951 0.3136528 -0.38640812 -0.36975202 -0.35973445 0.13570224
00000000: 3edb ff3d 7e3a b8ba 0831 b53d 3956 cdbd
00000010: e2f8 8e3d 9451 11bd 4756 293e d7d9 90bb
00000020: 43ae 90be eab2 853e 896e 143e fff5 373e
00000030: e288 0e3e cf05 0a3e 076d ab3d e52e 39bd
00000040: 04b2 d53d ba8b ea3a f2da 9a3d 6f31 a3be
00000050: c6a5 59be 5e1f 833e c14e 183e e8fe 0abe
00000060: 314d 293e 5134 183d 7868 26bf 25b7 ddbc
00000070: 6694 913e 507c 93be 34eb 82be 76da b9be
00000080: 3c85 20be 793e 0c3e efef 12bd 2a55 9d3c
00000090: 4293 4a3e a11a a33e 26b0 b4bb 9695 fd3c
000000a0: 7b0b 493d 0beb 153c e72f 863d 31cf f8bd
000000b0: 152f 74be 78e5 84ba 4fd6 b13e a814 5d3e
000000c0: 3538 2f3e 9d79 e83c 804a 8f3e 6948 cfbd
000000d0: 7e34 f1bd a2e2 743d a724 54be 21d4 bcbd
000000e0: 8bd3 753d 8cb8 f4bc 5b61 113d 9ee8 8f3e
000000f0: c00e 6fbe ec3c 84bd a378 6c3e 8263 8abe
00000100: 14f1 1cbd 9625 d03e fbde 6dbc 718f 093e
00000110: e37a e1bd f8ef e5be e79d 8a3e eea1 7f3d
00000120: 6db6 68bd 5f98 8abe 4bfc 05be d530 303e
00000130: 24bc 99b9 8c93 1dbe 1719 4e3e d59a 95bc
00000140: 404a 9a3c 7e93 81bd 92fa 3bbe e90f 9b3d
00000150: 55d3 66be 1ac8 abbd 5bec f6bc b3bb 26be
00000160: d87b 1abe ab13 963e 82af d8bc e651 b3bc
00000170: 3e8a 253e 1cf6 11bd 02c6 7bbd 813d 023d
00000180: e9c7 8d3e 4a90 d73d 0d7e 8f3c d511 273e
00000190: df57 8b3d 0be7 013e e354 013e 31d2 4abe
000001a0: f30c 5abc acbf 673e 45c2 2a3e 76b5 7c3d
000001b0: 92bc 3d3c 97d3 183d 400b fd3d 2f36 28bd
000001c0: ffd2 bdbd bac7 6b3d f0d0 403d 136a d93d
000001d0: 5193 e63d 9d43 133c 8720 a7bd 11fe 5b3e
000001e0: 79d0 93be f52d 97be 0fce 32be 2753 243e
000001f0: ee6a 89be edcc 7dbe 7b8f 013f d0b4 67bd
00000200: d46c 4bbe 0c0f 84bd dc09 8dbe 79c7 f73c
00000210: 0b75 87be 84d5 23be 29b6 14bf 37b0 c73d
00000220: 4847 623e a746 c3be fb5e 9abd 64db 173c
00000230: a685 273e 7b98 42be f9fc aabe a7f7 383e
00000240: 05fd 8a3d 9002 8bbe 7b23 67be bb8a 943e
00000250: a369 c0bd ff00 273c 10a0 833d ccc0 a33d
00000260: cff9 e0be a4ae 1eba 3e08 35be bba3 cfbd
00000270: d928 e2bd 4f78 903e e325 9cbd a921 54be
00000280: 6950 36be 0ea1 163d ef3c bc3d eeda 1e3e
00000290: 9e7d 923e 4be0 663e eae7 073e 6f44 dcbe
000002a0: 9fa6 c3be 7d4f d93c 4f90 ca3e 0dd1 c2bd
000002b0: 1058 e53d 9065 58be 025c 6ebc d099 413d
000002c0: 3fe9 3d3e d286 033f cdce 99bd 6359 44be
000002d0: b04f 9c3a 0971 533c d350 d53c e6b8 6dbe
000002e0: 4999 15be 9fcb f2bc a9ee 2a3e f5d8 23be
000002f0: e307 59be 1123 0d3e daa6 233e 9283 32bc
00000300: 7c4c fdbd 676c cc3d 182a 9a3e bc7d 88bd
00000310: 04d8 aa3d 71ca 6f3c 3862 943c 888c 00be
00000320: c9b2 36be 47c0 933e 7e8d 7ebd 0486 87be
00000330: 4b3a 4ebd e124 7b3e 690f 663e 0019 4fbe
00000340: a44c a83e af82 123e 5bd9 c0bb 2719 98bd
00000350: 4da1 083e 74b7 2dbe bb9e e3be 5fcb a53d
00000360: faec 8cbd a3c2 ce3e 447f 60bd c208 06bf
00000370: 1fd7 393b f014 12be e51e d63e b470 ee3c
00000380: 0669 6cbe 7673 ca3c 8feb 183d 290e 91bd
00000390: ebd6 2abe 9d12 2a3e 0fbf d23e cf69 81be
000003a0: 8f3d 3c3c 83bf 52bf d5b5 3b3d b8ef 71bf
000003b0: b889 d0be 41d2 993e 8bf6 843d 7b72 cabe
000003c0: 4efb 243d ccf6 8b3e 77e8 87be dea9 15be
000003d0: 7dcb 963e 2c1f 58be 7e4a b8bc 6a0a b5bc
000003e0: 4b0d acbd 0b97 e1be 5806 0d3e 1a97 a03e
000003f0: 49d7 c5be 2350 bdbe 1d2f b8be 87f5 0a3e

network_body._body_endoder.seq_layers.0.bias f4 [128]
0.03884364 0.011203773 0.00035548743 0.036271624 0.050580822 -0.025940977 0.029141694 0.012430064
0.09999237 0.0068980097 -0.013484729 -0.041780382 0.06430606 -0.026594155 -0.0095458245 0.016808191
-0.01929871 0.05510322 -0.030526599 -0.035108794 0.034469724 -0.053981274 0.0042865127 -0.12428401
-0.017334137 0.0031730584 0.026835736 0.051153347 0.022840792 -0.040581502 0.044044323 0.09982732
-0.031654783 0.010193866 0.05976807 0.02677967 0.0073068156 0.0366317 -0.0133333085 0.02936855
0.004263224 0.019658959 0.024988422 -0.021327991 -0.013447078 0.012606745 0.0926527 0.000756668
0.0033168197 0.0031629947 0.041594215 -0.021798372 0.021411236 -0.010238427 0.031468365 0.061267283
0.05296055 -0.08822327 0.040070746 -0.016043255 0.050454628 -0.009781605 -0.011348408 -0.01145204
0.041903555 0.00056446524 -0.018645395 -0.032293946 0.07658197 -0.008675103 -0.010476067 -0.0096224
0.06945688 0.020255376 -0.017542824 0.029867494 0.031085635 -0.01499729 -0.009834843 -0.014467075
-0.072339825 0.017627686 0.0036856374 -0.027098866 0.016322153 0.027125929 0.035152152 0.0054748305
0.12251378 -0.08189542 -0.01856964 0.06995932 0.06547582 0.009367497 0.021425677 0.0055904146
-0.032823082 0.00482046 0.012500804 -0.001077476 0.013882051 0.07115062 0.034697995 -0.009851025
-0.020574646 0.007355075 -0.04316267 -0.039313365 -0.020690119 -0.030000739 0.0037225464 -0.04452969
0.03384882 0.039598912 -0.010591574 -0.031043816 0.0086119715 0.013904289 -0.0046596485 0.043790773
0.015444206 0.09704431 -0.058592357 0.015047042 0.027852945 0.013142667 -0.0060882275 0.008261802
00000000: 821a 1f3d 0890 373c b760 ba39 8e91 143d
00000010: d62d 4f3d 2c82 d4bc 90ba ee3c 78a7 4b3c
00000020: cdc8 cc3d b308 e23b 0eef 5cbc e821 2bbd
00000030: e5b2 833d fcdb d9bc 1766 1cbc 55b1 893c
00000040: 5418 9ebc eab3 613d eb12 fabc 3dce 0fbd
00000050: 2030 0d3d 781b 5dbd e075 8c3b 9d88 febd
00000060: 5200 8ebc 16f3 4f3b 9ed6 db3c 2c86 513d
00000070: 9d1c bb3c ca38 26bd d267 343d 4472 cc3d
00000080: 72a8 01bd 2c04 273c 5dcf 743d 0a61 db3c
00000090: 036e ef3b 1f0b 163d f373 5abc 5096 f03c
000000a0: 84b2 8b3b d30b a13c 85b4 cc3c 0ab8 aebc
000000b0: 2251 5cbc 858c 4e3c b3c0 bd3d 215b 463a
000000c0: 005f 593b 3f4a 4f3b b25e 2a3d 8092 b2bc
000000d0: 9e66 af3c 13bf 27bc f9e4 003d 67f3 7a3d
000000e0: 29ed 583d 67ae b4bd 3921 243d 256d 83bc
000000f0: 83a9 4e3d 0643 20bc acee 39bc 56a1 3bbc
00000100: 10a3 2b3d 9ff8 133a 3abe 98bc a846 04bd
00000110: 02d7 9c3d 0522 0ebc cfa3 2bbc 45a7 1dbc
00000120: 693f 8e3d 9aee a53c f8b5 8fbc adac f43c
00000130: 4da7 fe3c 32b7 75bc 5222 21bc 4f07 6dbc
00000140: e726 94bd f067 903c bc8a 713b 71fe ddbc
00000150: 09b6 853c 3237 de3c b4fb 0f3d 3566 b33b
00000160: 81e8 fa3d c9b8 a7bd 5c1f 98bc d546 8f3d
00000170: 3018 863d 217a 193c e784 af3c cc2f b73b
00000180: 7f71 06bd f3f4 9d3b 2cd0 4c3c 183a 8dba
00000190: 8b71 633c 6bb7 913d 7c1f 0e3d 3266 21bc
000001a0: 298c a8bc d702 f13b 57cb 30bd 0d07 21bd
000001b0: 537e a9bc 1cc4 f5bc f7f5 733b c464 36bd
000001c0: 0fa5 0a3d 7832 223d 4888 2dbc 9a4f febc
000001d0: 3a19 0d3c d1ce 633c f7af 98bb f45d 333d
000001e0: b209 7d3c 2bbf c63d 8afe 6fbd de87 763c
000001f0: dc2b e43c 5754 573c c17f c7bb 825c 073c

network_body._body_endoder.seq_layers.2.weight f4 [128, 128]
-0.26300833 -0.17510074 0.1280585 0.1690551 0.1512812 -0.087091036 0.040080667 -0.051806085
0.123772986 0.142727 -0.21282655 -0.05187102 0.14327122 0.28356227 -0.0235637 -0.047098964
0.12016368 -0.048408203 -0.065500125 0.085185096 0.042010296 0.17625464 -0.013038753 0.10132973
-0.057404004 0.14283042 -0.07088589 -0.14504877 0.055853542 0.09052566 0.009465622 -0.19172306
0.19849338 -0.26929632 0.00084580854 -0.057522446 0.04250406 -0.064088605 -0.24842294 -0.038835283
0.091976896 0.16015127 -0.06419452 0.04021117 -0.007380211 -0.107600436 0.03945196 -0.16260499
0.108820595 -0.03825813 -0.050862964 -3.1570766e-05 0.05677902 0.14446263 0.14902516 -0.072794445
0.19258149 -0.08533168 0.075472936 -0.24118109 -0.11905042 -0.08303863 0.043367933 -0.04888296
0.23682895 -0.08875061 0.19617456 -0.09074338 -0.25201964 -0.08295705 -0.11328568 0.1440244
-0.21410784 0.08705887 -0.08099033 -0.06815847 -0.12845388 0.16548255 -0.012048488 0.21468045
0.09527112 -0.18219322 0.019532455 0.10721441 -0.0026003693 0.025528654 -0.12999547 -0.030007329
0.00738088 0.02502551 -0.13885774 0.01799155 0.039158415 0.042120017 0.28016663 -0.064113066
-0.014242112 -0.045686286 0.06560007 -0.10898247 0.042729124 0.08920268 -0.012939522 -0.1010798
-0.16790128 0.1403623 0.0013466211 0.21726435 0.22721049 -0.21034041 0.0994833 0.02207285
-0.1730552 -0.004783585 0.0580264 0.19290593 0.065328404 -0.12980038 0.0286503 0.21355039
0.10707023 0.031015025 -0.1004545 -0.022015084 -0.07170231 -0.22962832 0.029164346 -0.19157279
-0.21154326 -0.026143407 0.054218583 0.00578222 -0.03709735 -0.121570654 -0.07324228 -0.053514574
0.11381853 0.0037369984 -0.043561913 -0.16213873 -0.24990526 0.15739372 0.120832995 -0.1347049
0.15617521 -0.110942766 -0.08513374 0.014907724 0.021067781 0.13806175 -0.14068332 0.0045280703
-0.19382103 0.24274133 -0.017507393 -0.057997737 -0.004737383 0.08129781 -0.03368242 -0.22641523
0.12810972 -0.10071161 0.018175667 0.059611943 0.016670771 -0.18619666 0.106818564 -0.28532538
-0.08063916 0.0746976 -0.06818268 0.020556634 -0.04897409 -0.009293229 -0.032402206 0.056383766
-0.02656773 -0.009596976 0.18756554 -0.017962106 -0.09358198 0.04287945 -0.05872973 0.056439865
-0.062500596 -0.063176915 0.0058992165 0.16320099 0.052530322 0.05777662 -0.11304077 0.08108584
-0.025462896 -0.05529655 0.0783255 0.08052249 0.10397672 -0.0069959466 -0.09366517 -0.10587545
0.09354966 -0.09373547 -0.054444913 -0.05731795 0.017918693 0.16618861 -0.08364042 4.812979e-05
0.09833398 -0.04003561 -0.09303247 0.16133542 0.2191557 0.090673916 0.049515594 0.02806222
0.08606151 0.059806913 -0.08700745 0.02418599 0.11488774 -0.13586476 0.10254261 -0.041533586
-0.15122743 0.11435604 -0.043279767 0.007982282 0.13305457 -0.09071143 -0.024870835 0.030446758
-0.14710124 0.15192544 -0.018905938 0.044507448 0.06461213 0.039692346 0.079733305 0.07983874
-0.115882374 -0.10186774 -0.21002829 0.25122222 0.07047255 0.067597255 -0.07713181 0.022171278
0.03637248 0.13925974 -0.09684313 -0.065852344 0.08420946 -0.047378823 0.04196358 0.18513857
00000000: 07a9 86be 9c4d 33be c421 033e c81c 2d3e
00000010: 75e9 1a3e c95c b2bd a02b 243d 9e32 54bd
00000020: b17c fd3d 0727 123e 34ef 59be b576 54bd
00000030: b1b5 123e 132f 913e a908 c1bc d8ea 40bd
00000040: 6018 f63d ae47 46bd ee24 86bd 8675 ae3d
00000050: fd12 2c3d 197c 343e 7ea0 55bc f685 cf3d
00000060: 7620 6bbd 2342 123e 9f2c 91bd aa87 14be
00000070: afc6 643d 8465 b93d b215 1b3c 0d53 44be
00000080: d941 4b3e 35e1 89be 40b9 5d3a a89c 6bbd
00000090: bd18 2e3d e340 83bd 9562 7ebe bf11 1fbd
000000a0: 625e bc3d b2fe 233e 6b78 83bd 78b4 243d
000000b0: b2d5 f1bb 9e5d dcbd 6198 213d ec81 26be
000000c0: 55dd de3d 8fb4 1cbd af55 50bd da6a 04b8
000000d0: 1e91 683d 03ee 133e 0d9a 183e 4115 95bd
000000e0: 1534 453e 60c2 aebd 8e91 9a3d 2df8 76be
000000f0: b5d0 f3bd 2810 aabd 93a2 313d 8039 48bd
00000100: 4a83 723e e1c2 b5bd fce1 483e aad7 b9bd
00000110: b808 81be 63e5 a9bd 5302 e8bd 227b 133e
00000120: 163f 5bbe ec4b b23d 42de a5bd ab96 8bbd
00000130: 6a89 03be 4274 293e 0567 45bc 31d5 5b3e
00000140: 811d c33d dc90 3abe 8702 a03c 3b93 db3d
00000150: f56a 2abb 7821 d13c 881d 05be eed1 f5bc
00000160: 4fdb f13b 4c02 cd3c b930 0ebe 0463 933c
00000170: 9364 203d 0a86 2c3d 0072 8f3e b64d 83bd
00000180: bf57 69bc 8b21 3bbd 5459 863d 3432 dfbd
00000190: bc04 2f3d e5af b63d 4a00 54bc ed02 cfbd
000001a0: 50ee 2bbe 23bb 0f3e 1b81 b03a 8c7a 5e3e
000001b0: dea9 683e 7a63 57be e6bd cb3d 1fd2 b43c
000001c0: 6235 31be 9fbf 9cbb 17ad 6d3d 2289 453e
000001d0: e6ca 853d 64ea 04be 09b4 ea3c f4ac 5a3e
000001e0: a347 db3d 3913 fe3c 17bb cdbd fa58 b4bc
000001f0: a9d8 92bd b023 6bbe 11ea ee3c a82b 44be
00000200: cc9e 58be b32a d6bc 4e14 5e3d c778 bd3b
00000210: 64f3 17bd 09fa f8bd 0c00 96bd 1932 5bbd
00000220: b119 e93d 6ee8 743b fa6d 32bd b207 26be
00000230: 2ae7 7fbe d22b 213e 4a77 f73d 15f0 09be
00000240: 65ec 1f3e f635 e3bd 995a aebd 873f 743c
00000250: 5796 ac3c 0f60 0d3e 4a0f 10be 3560 943b
00000260: 0579 46be 2f91 783e aa6b 8fbc 098f 6dbd
00000270: 0d3c 9bbb 777f a63d 94f6 09bd 65d9 67be
00000280: 322f 033e e341 cebd 23e5 943c a72b 743d
00000290: 2491 883c 56aa 3ebe b1c3 da3d 2b16 92be
000002a0: 2526 a5bd 0efb 983d 5ca3 8bbd 6366 a83c
000002b0: 0e99 48bd a142 18bc 2db8 04bd aaf2 663d
000002c0: 91a4 d9bc a33c 1dbc 2e11 403e 4425 93bc
000002d0: e9a7 bfbd 5da2 2f3d 968e 70bd 7d2d 673d
000002e0: 5000 80bd e662 81bd 374e c13b 291e 273e
000002f0: 092a 573d 2da7 6c3d eb81 e7bd 5510 a63d
00000300: 9097 d0bc a37e 62bd 1f69 a03d fae8 a43d
00000310: bff1 d43d 413e e5bb 86d3 bfbd 3ad5 d8bd
00000320: f796 bf3d 62f8 bfbd a101 5fbd 3ac6 6abd
00000330: 39ca 923c 592d 2a3e ab4b abbd f8de 4938
00000340: 5363 c93d 61fc 23bd cf87 bebd 1d35 253e
00000350: 5a6a 603e 3fb3 b93d ddd0 4a3d bee2 e53c
00000360: 0441 b03d 18f8 743d f630 b2bd b321 c63c
00000370: 434a eb3d 2220 0bbe dc01 d23d 1f1f 2abd
00000380: 5ddb 1abe 8033 ea3d 2046 31bd 1ec8 023c
00000390: 753f 083e eac6 b9bd ecbd cbbc 7b6b f93c
000003a0: b5a1 16be 5892 1b3e a0e0 9abc 714d 363d
000003b0: 5d53 843d 7194 223d 374b a33d 7e82 a33d
000003c0: bd53 edbd 09a0 d0bd a811 57be 33a0 803e
000003d0: ea53 903d 6e70 8a3d 48f7 9dbd 8aa0 b53c
000003e0: 4ffb 143d 1b9a 0e3e b155 c6bd 98dd 86bd
000003f0: 0276 ac3d 4c10 42bd 01e2 2b3d f794 3d3e

network_body._body_endoder.seq_layers.2.bias f4 [128]
-0.04631301 0.007462001 -0.018339263 -0.022930143 -0.050146308 -0.01817106 -0.119875334 -0.055069678
-0.041140385 -0.011525501 -0.023990678 -0.048928443 -0.063846916 -0.076162875 -0.011850557 -0.020973427
-0.12997349 -0.012904602 -0.017052839 -0.024365244 0.0076160077 -0.07620345 -0.012086078 -0.051063545
-0.0055086464 -0.038733903 -0.010207849 -0.11923755 0.004105211 -0.08985188 -0.042989142 0.0007626858
-0.010693492 -0.0068209562 -0.08848077 0.0058868825 -0.020132815 -0.008870776 -0.007480244 0.006703757
0.008666195 -0.02708071 0.03486804 0.0016002192 0.012214705 -0.068147145 -0.1865887 -0.040084664
-0.083651915 -0.057843443 -0.08116643 0.00436366 -0.09866117 0.0041412404 -0.027950557 0.0009322392
-0.0112969745 -0.004937855 0.011224019 -0.017610613 -0.06759952 -0.07268875 -0.10171925 -0.020288091
-0.018004702 -0.03243158 -0.010583559 0.010555013 -0.002171153 -0.14315 0.014432393 -0.005553288
0.0019144296 0.010051674 -0.045968924 -0.0842384 -0.03592114 -0.030624907 -0.05969858 0.018610727
-0.049892705 -0.009175109 -0.073855296 -0.019096084 -0.006251122 -0.028467054 -0.008412063 -0.011479208
-0.058175083 -0.034026783 -0.09041882 -0.04579295 -0.027192406 -0.035898503 -0.002675895 0.010475422
-0.034294944 0.020005187 0.0064886385 -0.07510247 -0.057552084 -0.01054252 -0.04179409 0.010251894
0.010504537 -0.039562277 -0.0054699043 -0.08752749 -0.028098237 -0.12673035 -0.046138942 -0.028596666
-0.05220842 -0.0021196178 -0.018838704 -0.08420159 -0.0031183746 0.022263912 -0.024750356 -0.046512578
-0.01894865 -0.023185013 -0.058416154 -0.046942502 0.0026030417 0.0007731751 -0.053295758 -0.058344122
00000000: b6b2 3dbd cd83 f43b 393c 96bc ffd7 bbbc
00000010: 3766 4dbd 7adb 94bc 3381 f5bd be90 61bd
00000020: d282 28bd 74d5 3cbc 1988 c4bc 3169 48bd
00000030: 2cc2 82bd 48fb 9bbd d728 42bc 77d0 abbc
00000040: c517 05be d36d 53bc 65b2 8bbc 9f99 c7bc
00000050: b48f f93b 8e10 9cbd af04 46bc 0228 51bd
00000060: e081 b4bb 71a7 1ebd d23e 27bc d132 f4bd
00000070: 0185 863b 4304 b8bd 6215 30bd faee 473a
00000080: c233 2fbc 5482 dfbb 6835 b5bd c0e6 c03b
00000090: 93ed a4bc bb56 11bc d61c f5bb 31ab db3b
000000a0: a8fc 0d3c 5dd8 ddbc cad1 0e3d 72be d13a
000000b0: 3020 483c bb90 8bbd 1c11 3fbe d12f 24bd
000000c0: b251 abbd 3fed 6cbd 963a a6bd 08fd 8e3b
000000d0: de0e cabd 3eb3 873b 91f8 e4bc 8461 743a
000000e0: f216 39bc bbcd a1bb f3e4 373c 2244 90bc
000000f0: 9e71 8abd d7dd 94bd 2f52 d0bd 3633 a6bc
00000100: 997e 93bc fad6 04bd aa66 2dbc efee 2c3c
00000110: e749 0ebb ea95 12be d875 6c3c 5bf8 b5bb
00000120: 99ed fa3a c7af 243c e949 3cbd 2f85 acbd
00000130: 0c22 13bd 16e1 fabc 8086 74bd 8675 983c
00000140: 4b5c 4cbd 3253 16bc 7241 97bd 646f 9cbc
00000150: 36d6 ccbb bd33 e9bc c0d2 09bc 4a13 3cbc
00000160: ff48 6ebd ab5f 0bbd 812d b9bd 6391 3bbd
00000170: 9cc2 debc 4f0a 13bd 125e 2fbb 1ba1 2b3c
00000180: db78 0cbd ebe1 a33c a59e d43b 53cf 99bd
00000190: bcbb 6bbd 89ba 2cbc 4830 2bbd 8ff7 273c
000001a0: 391b 2c3c 0e0c 22bd e23c b3bb 9d41 b3bd
000001b0: 462e e6bc 9ac5 01be 30fc 3cbd 8e43 eabc
000001c0: 7fd8 55bd 49e9 0abb a053 9abc e271 acbd
000001d0: a55d 4cbb cf62 b63c 42c1 cabc f983 3ebd
000001e0: 333a 9bbc 7fee bdbc c745 6fbd c846 40bd
000001f0: cb97 2a3b e7ae 4a3a a74c 5abd 3ffa 6ebd

action_model._continuous_distribution.log_sigma f4 [1, 2]
-4.798472 -4.385736
00000000: 158d 99c0 f357 8cc0

action_model._continuous_distribution.mu.weight f4 [2, 128]
0.017735783 0.0023988564 -0.010202327 -0.0042104376 -0.041268922 -0.0013577312 -0.11620542 -0.10822302
0.012017873 -0.0015321422 0.0032809747 0.0005685468 0.0017691858 -0.0079257805 0.015785053 -0.0007718898
-0.118488975 -0.006646592 0.04286771 0.0021193954 -0.0053484864 -0.103493705 0.002916617 -0.14549853
0.010633297 0.015519516 -0.00031048854 -0.097791746 0.02016538 -0.11822927 -0.11314113 0.0023099312
2.989191e-05 -0.012174147 0.0059569976 -0.0072365114 0.0018393217 0.004821906 0.004004189 -0.0022520546
0.007800407 -0.0027899195 0.0022362694 0.007856866 -6.0700033e-05 -0.13585255 -0.24187261 -0.015834048
-0.12574585 -0.031228762 -0.014349851 0.04155774 -0.1306137 -0.0028995255 -0.0005433865 -0.011582429
-0.009652218 -0.00042503528 0.009189946 0.0011834006 -0.0029968887 -0.1179226 -0.10393702 0.0063902996
-0.0045705056 -0.0017679897 0.013586273 0.00048832485 0.0036835617 -0.118360475 0.002118771 -0.034436725
-0.009628225 0.006260712 -0.06849801 -0.05694097 0.0025910775 0.004820768 -0.12843733 0.004335318
0.018104406 -0.002614432 -0.11510151 -0.005145382 -0.013397642 0.017639508 -0.07540546 0.011753621
-0.12202109 -0.00015968803 -0.0009622747 -0.0044512125 0.0047903457 0.0066421754 0.015957797 -0.018655702
-0.0026547387 -0.0004696906 -0.018627454 -0.08081579 0.018381724 0.00560979 -0.010263175 3.48519e-05
0.0044699167 0.010351273 0.00675793 -0.14217569 0.011482244 -0.13183402 0.0015252546 0.012155514
-0.095668375 -0.0035047496 0.008719332 -0.130999 0.002180286 -0.029428063 0.0009996536 -0.013028955
-0.0006268679 -0.14711173 -0.1357909 0.0042440407 -0.0005708075 0.0019059299 0.006993361 0.00849158
0.03100684 0.03340174 -0.008063156 0.29354167 0.08468708 -0.044639934 -0.023737201 0.050343476
0.11980165 0.0021792017 -0.17970198 0.16879149 0.3801246 -0.24320011 0.19318916 -0.00067253574
-0.011832573 -0.014345098 -0.003480784 -0.003198975 -0.0026144525 -0.052026488 -0.0050703436 0.012485607
-0.009946555 0.10924869 -0.0013411695 -0.03567111 -0.15325275 0.015749598 0.0304228 0.21341294
-0.00043981642 0.13612051 0.06742016 -0.0017058986 -0.0012777125 -0.3295912 -0.28092936 -0.17634137
-0.1330118 -0.05658885 -0.35659438 -0.31518438 -0.23792794 -0.010049677 0.038450588 -0.15949056
-0.028230228 -0.095696464 0.111719646 0.019028572 0.0031721822 -0.14231656 0.022609929 -0.07914333
-0.01634411 -0.034745988 -0.004192522 0.0015203868 0.088562004 -0.0064195953 0.05081294 -0.029416405
-0.038082093 -0.0030322394 -0.01693291 -0.00055680383 0.04467517 0.0064369445 -0.004201767 0.18580073
0.1129041 -0.046168867 0.059987105 0.05097753 -0.0038305605 -0.16137938 -0.03205512 -0.19785868
0.12134466 0.0052770544 0.013843165 0.032103125 0.0026079896 0.10054982 0.061954174 -0.05816257
0.042216364 0.23510666 -0.20332862 -0.113240615 -0.09612031 0.012310469 0.048057154 0.114070244
-0.012921314 -0.00014063588 -0.1616671 0.040104035 0.067390464 7.881451e-05 0.13602407 -0.3251158
-0.00452624 -0.003623955 -0.0020251519 -0.002850646 0.13844514 -0.013159295 -0.45512262 0.017240504
-0.059574403 -0.053773697 -0.15946327 -0.03201189 0.0005871878 0.11942937 0.00011178317 0.11437321
-0.00338339 0.008616073 0.018871443 -0.55215275 -0.000109244975 -0.057278577 0.14148414 0.17337938
00000000: a24a 913c 2236 1d3b a927 27bc b6f7 89bb
00000010: 9a09 29bd e6f5 b1ba 1bfd edbd 08a4 ddbd
00000020: 9de6 443c 29d2 c8ba 9f05 573b 880a 153a
00000030: 06e4 e73a 22db 01bc a84f 813c a658 4aba
00000040: 59aa f2bd a8cb d9bb 0d96 2f3d 8ee5 0a3b
00000050: 5b42 afbb 82f4 d3bd b724 3f3b 91fd 14be
00000060: 4837 2e3c 9145 7e3c 11c9 a2b9 0a47 c8bd
00000070: de31 a53c 3022 f2bd 89b6 e7bd 3762 173b
00000080: 63c0 fa37 1376 47bc eb32 c33b 4220 edbb
00000090: 6515 f13a 1401 9e3b 9235 833b 3597 13bb
000000a0: 8e9a ff3b 15d7 36bb 608e 123b 16ba 003c
000000b0: 2a98 7eb8 ee1c 0bbe 74ad 77be 68b6 81bc
000000c0: 85c3 00be 76d3 ffbc a31b 6bbc 7338 2a3d
000000d0: 99bf 05be f705 3ebb 0d72 0eba 3ac4 3dbc
000000e0: 5624 1ebc 45d7 deb9 6d91 163c 561c 9b3a
000000f0: 7367 44bb 6781 f1bd efdc d4bd b865 d13b
00000100: 2ec4 95bb e4bb e7ba f698 5e3c ed02 003a
00000110: e967 713b fa66 f2bd 14db 0a3b 860d 0dbd
00000120: b4bf 1dbc a926 cd3b af48 8cbd ef3a 69bd
00000130: 11cf 293b 88f7 9d3b 1385 03be 490f 8e3b
00000140: b14f 943c e456 2bbb 57ba ebbd 989a a8bb
00000150: c981 5bbc bb80 903c 2e6e 9abd 4292 403c
00000160: 31e6 f9bd ee71 27b9 2941 7cba 7adb 91bb
00000170: 55f8 9c3b 9ba6 d93b edb9 823c d8d3 98bc
00000180: 20fb 2dbb ce40 f6b9 9a98 98bc c082 a5bd
00000190: 4595 963c 54d2 b73b e026 28bc f12d 1238
000001a0: 6178 923b 6398 293c a071 dd3b 8196 11be
000001b0: 0620 3c3c 7fff 06be 0deb c73a ec27 473c
000001c0: c8ed c3bd f1af 65bb 87db 0e3c 9a24 06be
000001d0: 21e3 0e3b 1f13 f1bc cf06 833a 6677 55bc
000001e0: 6554 24ba 75a4 16be c50c 0bbe 9811 8b3b
000001f0: 3ea2 15ba 65d0 f93a 9028 e53b 4520 0b3c
00000200: 0e02 fe3c 43d0 083d 541b 04bc 184b 963e
00000210: 6b70 ad3d 5dd8 36bd 8574 c2bc f634 4e3d
00000220: 915a f53d f0d0 0e3b cc03 38be add7 2c3e
00000230: b19f c23e 7309 79be 61d3 453e 1c4d 30ba
00000240: 69dd 41bc b407 6bbc dd1d 64bb e5a5 51bb
00000250: 3c57 2bbb ba19 55bd 2025 a6bb 6e90 4c3c
00000260: e0f6 22bc c7bd df3d 2eca afba df1b 12bd
00000270: 4aee 1cbe 4d05 813c 3c39 f93c ec88 5a3e
00000280: 2997 e6b9 2d63 0b3e 9513 8a3d 7598 dfba
00000290: eb78 a7ba 2ec0 a8be f9d5 8fbe d592 34be
000002a0: 3f34 08be b6c9 67bd 8a93 b6be d95f a1be
000002b0: 62a3 73be 67a7 24bc 5d7e 1d3d 7e51 23be
000002c0: 1443 e7bc 82fc c3bd 45cd e43d cfe1 9b3c
000002d0: 63e4 4f3b 6fbb 11be 7538 b93c e615 a2bd
000002e0: 15e4 85bc cf51 0ebd 6c61 89bb b747 c73a
000002f0: ff5f b53d 785b d2bb 3b21 503d acfa f0bc
00000300: f8fb 1bbd 89b8 46bb e3b6 8abc 79f6 11ba
00000310: 50fd 363d 01ed d23b faae 89bb 8c42 3e3e
00000320: 443a e73d 911b 3dbd 0ab5 753d d1cd 503d
00000330: 240a 7bbb a340 25be 3b4c 03bd 779b 4abe
00000340: 8d83 f83d 24eb ac3b 71ce 623c 917e 033d
00000350: ceea 2a3b 10ed cd3d a9c3 7d3d e03b 6ebd
00000360: 11eb 2c3d cdbf 703e 6135 50be b2ea e7bd
00000370: bada c4bd d9b1 493c 94d7 443d a99d e93d
00000380: ebb3 53bc a877 13b9 0f8c 25be 2144 243d
00000390: 0304 8a3d 3849 a538 e549 0b3e 9475 a6be
000003a0: da50 94bb e07f 6dbb 69b8 04bb e7d1 3abb
000003b0: 90c4 0d3e 159a 57bc d505 e9be f53b 8d3c
000003c0: 4a04 74bd cf41 5cbd 574a 23be e61e 03bd
000003d0: 82ed 193a 6397 f43d 226d ea38 803c ea3d
000003e0: ddbb 5dbb 6e2a 0d3c 4998 9a3c e259 0dbf
000003f0: 731a e5b8 f19c 6abd 38e1 103e 5d8a 313e

action_model._continuous_distribution.mu.bias f4 [2]
0.12889187 -0.0063274927
00000000: 3bfc 033e db56 cfbb
