ML Racing/Assets/NNModels/default.onnx (onnx, 116484 bytes, 7 tensors)

network_body._body_endoder.seq_layers.0.weight f4 [128, 91]
00000000: 5441 66bc 9562 e53d ec68 9a3d 85b2 a43d
00000010: cb71 4b3e d640 04be 04c1 c53d fbcd dbbd
00000020: a71d c63e 43ee 3cbf 7481 8a3e 9036 393e
00000030: ee66 2e3e 0dc4 b1bd 5dc3 4d3c 929e 1dbf
00000040: 5c8e fabd 1ae0 c3be d7f2 0b3d 2dd6 56bc
00000050: 223c 62be f7e3 913e 712f c83d b868 eabe
00000060: dc35 a1bd 7979 e93d 7335 cb3d 589d fd3e
00000070: 4f73 8cbe cfcf 1d3e 18cd 8b3e 5eca b23e
00000080: b79a 40bf eeac b83d 6da4 6e3e b388 a13e
00000090: ebed d3bd 2309 a3bd 38da 423e 474b 7f3e
000000a0: f23e 19be 40f4 013e 561e 2d3e 91af 773e
000000b0: d844 09be d40b 85be ee30 d63e cecf 9f3d
000000c0: 2afc 00be 91da 4f3e 014f acbc db6b e2bd
000000d0: 2321 a9be 9fee d43e 40b4 96bd 6d5f 06be
000000e0: 83ac 9c3e 21ab c7be c114 2bbe 9cf5 04bf
000000f0: b4ca 143e 43b2 c0be 47d3 ca3e 0ef0 2c3d
00000100: dbc6 af3e b2f1 43be 2e77 9b3d 6adc 0cbd
00000110: 9fbe ca3d feaf 8a3c 3f41 5f3d 2438 ee3e
00000120: 1358 14bf 0c6b b03c 40f6 783d 28d6 153f
00000130: 967c 84bd 889a 5c3e 0789 1f3d d784 193e
00000140: 569f 803d 7394 97be 9fd6 d6bb 190f 243e
00000150: 26fa 3f3e eba5 94be ee93 a13c 433b 973e
00000160: 8f82 3b3e e3b0 72be e896 aa3e 535f 83be
00000170: 2c4f 34be bf64 27bd 3c8c 4c3d 5c72 1fbf
00000180: 843d ce3e 7ea2 04bd a743 513d ac45 e8bb
00000190: e589 533d 4f65 97bc 90f8 063e 9c26 8ebe
000001a0: a9ac bcbd 7f45 713e d39e b9bc 7283 283e
000001b0: 2b80 503e f60b 7cbe 8ecd d8be 6d33 23bd
000001c0: 64a3 55be 19ff 61be 0c78 8a3d 8bfb 533e
000001d0: 920c d9be ff23 93be 5852 f63d a608 213d
000001e0: da8c bf3d 7897 223e cbc2 81be 472c cdbe
000001f0: 3a9a 61be 7015 fc3d b1f5 37bd a86d 81bd
00000200: d481 9a3c 8724 1f3c aaa6 0b3e d73b ab3d
00000210: cfa0 a13e d390 b23c 296d 343e 3bb8 613b
00000220: 929b f3bd d6a1 8c3d d793 f8bb 4fae 483d
00000230: 7f1b cfbe 12ab 353d c529 d93c e303 92be
00000240: c4b5 b33d 6336 0f3e 873e b23c eb72 103e
00000250: b489 8ebe 23d1 183e 4163 0fbe b2db 3c3e
00000260: 78cb c73d 5027 503d 3321 13be c32a 31be
00000270: 3360 b5ba 7c56 263d eb4d e63e 979f 73be
00000280: 74af 46bd 6378 d4bd 56b0 723e e708 b8be
00000290: ff1f d4bd 3d11 123d 4702 bebd f4eb 1ebd
000002a0: b9dd 8ebe 8469 d73d 7664 9a3d 9fa2 7fbd
000002b0: 7245 163e 396e 01be 053c 8b3e 0d48 39bd
000002c0: a238 edbc e21f bf3c f386 923d 18f8 9abd
000002d0: a1ec b0be 221a 06bf 7d56 18be 56f0 abbd
000002e0: d4fe 8ebd d683 fdbd 95af a73e d8dd ab3d
000002f0: 244e 2ebe eb56 783e 1a8d d9bd 4a55 4fbe
00000300: f27e 8d3e 34c4 5b3e f057 273b fc2d 20be
00000310: 8b09 1dbe b576 3e3c 3416 81bd ae8c da3e
00000320: 07f8 06bf dfd1 0cbf c73c 09bc a3bf 493e
00000330: f33d d73b 679e db3e 1b87 cc3d 4ecb 0fbe
00000340: 8a1e 01bf f44b 28bf eb46 42be a621 4a3e
00000350: 91c1 7abf 8102 923c 0239 c63e 70db 75be
00000360: 23cc 53bf da7e 6abe d6cc cebc 8751 87be
00000370: e9d4 ca3e 4cf6 4b3c 10d0 363e 6272 633c
00000380: 6fd4 733e 7a5f ddbd c869 623d a7d3 703d
00000390: 5c63 813c 7959 8ebd de4b 1abc 7438 f53d
000003a0: d14b 41be da68 033e 8b99 aabc 0ea7 c33d
000003b0: 9d73 c4bd 7981 013f 3ea2 01be 141b 423d
000003c0: 41dd 95be fad3 cbbe 61d2 633e b94f 06be
000003d0: 90ef 17be 98c0 2dbf 390c 9fbe e556 7d3e
000003e0: a7c5 18bd 2917 cd3e 82cb 9ebe 35c8 493d
000003f0: 402d b73e d681 b0be c4a3 ae3d 32e5 c63d
-0.014053661 0.11200444 0.075395435 0.080418624 0.19867627 -0.12915358 0.096559554 -0.10732647
0.38694498 -0.7380106 0.2705189 0.1808722 0.17031452 -0.08679972 0.012558785 -0.61570084
-0.12234184 -0.38256913 0.034167137 -0.013112587 -0.22093251 0.28494236 0.09774674 -0.4578302
-0.07871601 0.11400122 0.09922304 0.49534106 -0.27431723 0.15411304 0.27304912 0.3492002
-0.75236076 0.09017359 0.23304911 0.31549606 -0.103481136 -0.07960727 0.19028556 0.2493106
-0.14965418 0.1269083 0.16906103 0.24188067 -0.13405168 -0.25985587 0.41834205 0.078033075
-0.12596193 0.2029822 -0.021033766 -0.11055728 -0.33033094 0.41588303 -0.07358599 -0.1312234
0.30600366 -0.38997748 -0.16707136 -0.5193727 0.1453045 -0.37636003 0.39614317 0.04222112
0.34331402 -0.19135168 0.07591091 -0.03438989 0.09899639 0.016929623 0.054505583 0.46527207
-0.5794689 0.021535419 0.060781717 0.585299 -0.064690754 0.21543324 0.03894904 0.1499208
0.06280391 -0.29605445 -0.0065563465 0.16021384 0.18747768 -0.29032835 0.019723859 0.295374
0.18311523 -0.2370029 0.33318257 -0.25658664 -0.17608327 -0.040867563 0.049938425 -0.62283874
0.40281308 -0.032381527 0.05108991 -0.0070883837 0.05164518 -0.018480925 0.13180757 -0.27763832
-0.0921262 0.23561667 -0.022658741 0.16456392 0.20361392 -0.24613938 -0.42344326 -0.039843965
-0.2086311 -0.22069968 0.067611784 0.20701425 -0.42392403 -0.287384 0.120274246 0.03931489
0.09353037 0.15878093 -0.25343928 -0.40072843 -0.22031489 0.123087764 -0.044912044 -0.063197434
0.018860735 0.009713299 0.13637796 0.08361023 0.31568 0.021797573 0.17619766 0.0034442085
-0.11894907 0.06866805 -0.0075859833 0.04899436 -0.40450665 0.0443526 0.026509175 -0.2851859
0.087749034 0.1398559 0.021758331 0.14106338 -0.27839434 0.1492353 -0.14002706 0.18443182
0.097556055 0.05081874 -0.14368133 -0.17301469 -0.0013837874 0.04060982 0.44981322 -0.23791347
-0.04850717 -0.103745244 0.2370008 -0.35944292 -0.10357665 0.03566097 -0.09277778 -0.03879924
-0.27903536 0.105181724 0.07538693 -0.062410947 0.14674929 -0.12639703 0.2719423 -0.04523473
-0.028957669 0.023330633 0.07154646 -0.075668514 -0.34555534 -0.52383626 -0.14876743 -0.0839545
-0.06982198 -0.12378661 0.32751146 0.08391923 -0.17021996 0.24251907 -0.10622616 -0.20247379
0.27635914 0.21461564 0.0025534593 -0.15642542 -0.15335672 0.011624982 -0.06303063 0.42685455
-0.5272221 -0.5500774 -0.008376307 0.1970201 0.006568664 0.4289429 0.09986707 -0.14042398
-0.50437224 -0.65740895 -0.18972366 0.19739398 -0.9795161 0.01782346 0.38715369 -0.2400949
-0.8273336 -0.22899953 -0.025244158 -0.26429388 0.39615563 0.0124488585 0.17852807 0.013882251
0.23811506 -0.10809226 0.055276662 0.058795597 0.015794449 -0.06950659 -0.009417502 0.11973658
-0.18876578 0.12832966 -0.020825168 0.095533475 -0.09592364 0.50588185 -0.12659547 0.047389105
-0.29270366 -0.39810163 0.22248222 -0.1311635 -0.1483748 -0.67872 -0.31064013 0.24740179
-0.03729787 0.40056732 -0.3101464 0.049263198 0.3577671 -0.34474057 0.085273296 0.09711684

network_body._body_endoder.seq_layers.0.bias f4 [128]
00000000: 0c76 21bb c6d9 f8bb 7069 743b 2002 c83c
00000010: a9fd 71bd 586f c1bb 536d 923c 565e d0bd
00000020: 4efd 863c 15bb 8b3d 21f1 04bd 6de6 b33c
00000030: 5d2a 86bd ea8a 0c3d fcb0 933c 182e 323d
00000040: cd45 4cbc af5f d63b b499 a8bd 9709 463c
00000050: bb6d 373c 629e 29bd 19bf 183d 43fd 8bbb
00000060: 6246 87bc 411f 03bd 826e 573d d8c5 1f3d
00000070: b627 883d 33cc 7dbc 34aa 92bb ee93 e5b9
00000080: 2b71 babc e39f 90bc a582 ba3b 91b5 c43c
00000090: 5e25 093c 2507 05bd 49c8 f0ba f6d9 4b3b
000000a0: 4a4a 30bc ff12 493c 9449 eebc 6a99 563d
000000b0: c973 54bd 0fa2 f93c a367 86bd 00d5 673d
000000c0: 9852 053d 6857 70bc d9a5 c5bd a94c 5638
000000d0: 0e43 5ebd b61d f2bb 8d38 823c bf0b 1bbd
000000e0: 362a 3c3d 76df 84b9 90ef 82bc 093c 39bd
000000f0: 3180 cc3c cfde 393d 19dd 403c 3961 173d
00000100: 2dff c23b dd5b d03c 6145 ab3c a3bb e3bb
00000110: 6b62 ae3b 1275 f4bc 4c33 053d 67f2 103d
00000120: fce3 453c dc3e 60bd 3b6a 213d b4bf ba3b
00000130: 2542 f2bc f642 673d 7293 1c3c a365 663d
00000140: 2b05 6a3c 15b7 9ebd 1f74 f03c 7efd cf3c
00000150: 972a 433d 1a87 63bd a777 5cbd b0c4 de3c
00000160: ef02 0abd c46f a9bc acac 9bbc 57ec 65bd
00000170: 938b 0e3b f7bb 313d 2949 143d d913 56bc
00000180: 220f 27bd 9b09 733c 9631 a5bb ab0b 9abc
00000190: 7369 e4bd 7dd9 f13c 957e 0a3d b779 7c3d
000001a0: 4cde fb3b edfc 083d e199 78bd e082 3ebc
000001b0: 7e4b b1bc 2618 70bc 6387 463d 9730 2d3d
000001c0: bbc4 273d 7607 31bd 3689 383d aa04 ac3c
000001d0: c4ab d83d e5fb 9abc 1173 c63b 927c 49bc
000001e0: ed78 80bd 553d 03bd e31f 083b a952 c03d
000001f0: 88d4 d7bc f905 15bc 6773 903d 1f10 90bc
-0.0024637012 -0.00759432 0.003729429 0.024415076 -0.0590798 -0.005903166 0.017874395 -0.10174243
0.016478207 0.068227924 -0.03245652 0.021960462 -0.06551049 0.034312166 0.018028729 0.04350099
-0.012467814 0.006542168 -0.082324415 0.012087247 0.011195595 -0.04141081 0.03729162 -0.0042721345
-0.016513053 -0.032012228 0.052595623 0.039007038 0.06648199 -0.015490579 -0.004475856 -0.000437885
-0.02275904 -0.017654365 0.0056918436 0.024012359 0.008370725 -0.032477517 -0.0018370237 0.0031105257
-0.010759899 0.012272595 -0.02908782 0.0523924 -0.051868234 0.030472783 -0.06562736 0.056599617
0.03254947 -0.014669277 -0.096507736 5.109297e-05 -0.054263167 -0.0073887957 0.015896106 -0.037853
0.045938693 -0.00025343493 -0.015983373 -0.04522327 0.02496347 0.045378502 0.011771464 0.036957953
0.0059508295 0.025434429 0.020907106 -0.0069498583 0.005321791 -0.02984098 0.032519624 0.035387423
0.0120782815 -0.054747447 0.03940795 0.0056991223 -0.029572556 0.056460343 0.009556638 0.056249272
0.014283459 -0.07749764 0.029352246 0.02538943 0.04764804 -0.055548765 -0.053825047 0.027193397
-0.033694204 -0.020683177 -0.019003235 -0.056133594 0.0021750673 0.043392148 0.036202583 -0.0130662555
-0.040785916 0.014833833 -0.0050413115 -0.018804392 -0.11152925 0.029522652 0.033812124 0.061639514
0.007686412 0.033444334 -0.060693625 -0.011627883 -0.021642443 -0.014654195 0.04846896 0.042282667
0.0409591 -0.043220006 0.04505273 0.020998318 0.10579637 -0.01891894 0.0060561975 -0.012297766
-0.06273065 -0.032040913 0.002077096 0.09390766 -0.02634646 -0.009095662 0.07053261 -0.017585812

network_body._body_endoder.seq_layers.2.weight f4 [128, 128]
00000000: d424 20bd 94f6 e8bd bc70 5f3d d49f 813d
00000010: 9c29 463c 75a3 d1bd b466 dcbd 48c9 afbd
00000020: 6dbc 1bbd 090d 013e 94e0 8e3c 5b8d 40bd
00000030: 7cef a53d 5784 79bd aa01 1e3d d0ee a73d
00000040: a3b3 09be c1bc 66bd 2d91 71bd 2fe2 0a3e
00000050: 8d2b 3fbe 87a8 eebd 1b18 babd 8454 fd3c
00000060: 06c2 87bc 3166 c83d 0652 23be b0d0 a33d
00000070: f5fd 543c 6a74 843d 6f6c 543d 3dbc b5bd
00000080: 1f3a 03bd 16cd 0b3d d288 ffbc a640 bfbd
00000090: 606f 053e 3109 243c 7dc8 9bbc c322 36bb
000000a0: 893f 7abd dd3f 62bd f6f1 293e c06a 36be
000000b0: 5205 a83c ea6a 063e 4dee b2bd a4f9 41bb
000000c0: 7757 2cbd d849 08bd b56c c53d dbe7 983d
000000d0: 7f6f 073e 43ca 2cbe d6ea 7fbd ea13 50be
000000e0: d757 0b3e aef2 873c 5a02 003d 63a5 84bc
000000f0: 857d db3d 92d6 80bd f73f b7bd f726 303d
00000100: 5de9 e23d 60c4 f4bc 7fc1 22bd 53a8 2cbe
00000110: dde4 24bc 2f2f 8d3d 156b 36bd ee56 d0bc
00000120: 2e08 cabd 5e08 973c db50 273d a3fb 51bc
00000130: 5394 63bd 3e56 70bc 6382 ab3d 942c 243e
00000140: 1bd6 673d d0fa 3cbd c580 01be 8610 2b3c
00000150: 3470 60bd 2a2d adbc fd24 8c3d 6289 c43d
00000160: 5055 dcbd ced7 513d 0f25 72bd a0a7 26bc
00000170: 6216 663d 66ef 4e3c 4bc2 bd3d 0338 d93c
00000180: 584f 1c3d 83fb 13bd 66fc 0fbe abca 72bd
00000190: 7273 853d 1ec0 18bc c877 ad3c ba0b d7bd
000001a0: 75cb 2c3e da00 543c e90c 853d 0ff2 97bd
000001b0: b2a7 373e 2231 6abd a04f 3ebd f81a b23a
000001c0: c744 9e3d b3e4 7dbd 0e8b 933c 8daf acbb
000001d0: 97e5 65bd 1be0 b23c 11d9 083e 5717 a13c
000001e0: c66a 02bc 5230 0abc 5250 3f3d 945a c83d
000001f0: 6c26 d73d 8749 b7bd c807 a23c cfa4 00bd
00000200: 78a0 21bf baa2 14be 104f 02be 815c adbe
00000210: cdfa 263d e3d7 99bd 286c 7bbe 311b 9fbd
00000220: efd8 053d 9906 3abe 95ff eebd 476a ec3d
00000230: 845c f5be f446 d33d aac5 1e3e d9ad fbbd
00000240: f4b5 52bd 4d7c 0f3f 825e 3c3e ed75 0ebe
00000250: 3b67 e3bd ea76 013e bd91 eebe fcb7 f83d
00000260: bcf6 58be 139e a73b fbaf 033e 104d 23bd
00000270: 7283 0d3e cdcc 83be b234 0e3e c565 d23c
00000280: 6649 09be face 1fbe 19af b0bd bafb 8f3e
00000290: 2cbb 95bd a33f 32be 4633 e13e ee49 2cbd
000002a0: 71ca 0ebe f4ec 55bc fdc8 e7bb 0a39 dc3d
000002b0: 1f54 3cbe 1b27 a6be e622 e1be f799 3fbf
000002c0: 0543 17be 6218 7b3d f3ca 6abe 92fe 5bbd
000002d0: d0bb 19bd bf85 f43c 2550 d4bc 38a2 60be
000002e0: bc98 1e3e ae9b c0bd 5a27 d0bd 6582 493e
000002f0: 2616 0dbf b66e 63bd c37a 4fbd be3e bf3e
00000300: 57fc 8a3d a8de 50be 4ae1 e9bd 7cc3 b3be
00000310: 64a7 cd3d 5469 863c cf7c 80be 7014 593e
00000320: 7612 9abc 78b9 1c3e ad7f aabe 6b91 5c3e
00000330: 19e0 a6bd b1f1 ef3c 8fec cabe 886b 0cbe
00000340: 2297 7bbd d9e6 d9bb e297 653e ca84 93bc
00000350: 6c7b 163d ed43 bebe b528 39be 1855 fbbe
00000360: 6c73 dd3c 330e 683e 8870 993e 07c2 a0bd
00000370: e571 2cbd c23d 183e 57ef 383e 169a 8b3d
00000380: e828 0fbe c66b 43be d8cc 94bd 6bae 37be
00000390: 371b 8abe 9a4f db3d 1b39 9ebd 3b21 9dbe
000003a0: b8c7 0abe f3bd 05bf e155 1c3e eefe cbbe
000003b0: 87c4 debc 7c57 9b3d fdfe 5ebe 4b93 b8be
000003c0: ba01 86be 3481 22be 6ad0 d43d 552d 06be
000003d0: 8822 343e 58f8 92bc 2b4a 05be 76c2 9bbe
000003e0: 44e5 533e df25 06be 4d5b 92be 8d81 cfbe
000003f0: 878e 85be 7fab 303e b1b0 4d3e 3477 a2be
-0.039097622 -0.11375156 0.05455087 0.06329313 0.012094881 -0.10236255 -0.107617766 -0.08583313
-0.038021494 0.12602629 0.017441072 -0.047009807 0.08102319 -0.060917225 0.038575806 0.08199847
-0.13447432 -0.056332354 -0.05897634 0.13562845 -0.18668957 -0.11653238 -0.09086629 0.03092409
-0.01657201 0.097851165 -0.15949258 0.07998788 0.013000001 0.06467517 0.051861223 -0.08873794
-0.03203785 0.034131132 -0.03119317 -0.093385026 0.13030767 0.010011957 -0.019016499 -0.0027791716
-0.061095748 -0.055236686 0.16596207 -0.1781416 0.02051035 0.13126722 -0.087368585 -0.002959826
-0.0420756 -0.033273548 0.09639875 0.07466098 0.13226126 -0.16874032 -0.062479816 -0.20320097
0.13607727 0.01659521 0.031252243 -0.016192144 0.107173 -0.06290926 -0.08947747 0.04300591
0.11079667 -0.029878795 -0.039735314 -0.16861086 -0.010064331 0.06893765 -0.044535715 -0.025432076
-0.098648414 0.018436607 0.040848594 -0.0128163425 -0.055561375 -0.014668999 0.08374479 0.1603263
0.05660067 -0.04613763 -0.12646778 0.010440951 -0.054794505 -0.0211397 0.068429925 0.09596516
-0.107584596 0.051231198 -0.059117373 -0.010171801 0.05617369 0.012630319 0.09265574 0.026515966
0.038161606 -0.036128532 -0.14061126 -0.05927531 0.0651616 -0.009323148 0.02117528 -0.105002835
0.16874488 0.012939656 0.06496603 -0.07419216 0.17935064 -0.057175763 -0.046462655 0.001358836
0.07727962 -0.061985683 0.018010642 -0.0052699507 -0.056127157 0.021835377 0.13364054 0.01966445
-0.007960027 -0.008434372 0.04670746 0.097829014 0.10505375 -0.08949571 0.019779101 -0.031407174
-0.6313548 -0.145152 -0.12725472 -0.33859637 0.040766526 -0.0751188 -0.24552977 -0.07768858
0.032677587 -0.1816658 -0.11669842 0.11543708 -0.47922146 0.103162676 0.1550509 -0.12289018
-0.051443055 0.5604904 0.18395427 -0.13912173 -0.11103674 0.12643018 -0.46595564 0.12144467
-0.21187872 0.0051152795 0.128601 -0.039868414 0.13819674 -0.25742188 0.13887289 0.025683293
-0.13406906 -0.15606299 -0.08627147 0.2812174 -0.07311091 -0.17407088 0.4398443 -0.042062692
-0.13944413 -0.013056982 -0.00707352 0.10753067 -0.18391465 -0.3245171 -0.43971938 -0.74844307
-0.1477166 0.06130255 -0.22928981 -0.053709574 -0.037532628 0.029848931 -0.025917122 -0.21936882
0.15487951 -0.094046935 -0.10163756 0.19678648 -0.5511192 -0.055525504 -0.050654184 0.37352556
0.06786411 -0.20397437 -0.114199236 -0.3511008 0.10041693 0.016407646 -0.2509522 0.21199203
-0.018807631 0.15305126 -0.33300534 0.21539848 -0.08148212 0.029290052 -0.39633605 -0.13712895
-0.06142343 -0.0066498336 0.2242122 -0.018007655 0.036738798 -0.37161198 -0.18081935 -0.4908836
0.027032577 0.22661667 0.29968667 -0.07849508 -0.042100806 0.14867309 0.18060051 0.06816499
-0.13980448 -0.19084081 -0.07265633 -0.17937629 -0.26973888 0.10708542 -0.07725736 -0.30689415
-0.13552749 -0.52242965 0.15267135 -0.39842933 -0.02719332 0.07585046 -0.21776958 -0.36049876
-0.26173192 -0.158696 0.10391314 -0.1310323 0.17591298 -0.017940685 -0.13016574 -0.304218
0.20692927 -0.13100384 -0.28585282 -0.40528527 -0.26085302 0.1725292 0.20086934 -0.3173157

network_body._body_endoder.seq_layers.2.bias f4 [128]
00000000: 8a6d 93bc be13 82bc 27f3 b23c 2dab acbd
00000010: 9864 aabd 6a8b 1fbd 63ab 88bd 2162 41bc
00000020: 7865 8cbd 0e6d c9bc bda2 e63b 796c 5abd
00000030: 1434 24be 8b4c 26bd a33e 96bd 3a88 34bc
00000040: b6ed a3bd f18c 66be 0071 08be 4014 10be
00000050: 722c 11bd af65 c4bc 7030 58bd 00b1 ffbd
00000060: b253 1b3d af92 a2bd 8305 5ebd 630b 0d3d
00000070: 7704 aabc 56ca d9bd 5a1c 9abd 142c 3abd
00000080: e4f3 a3be 2b02 11be dfdb f5bc ed13 94bc
00000090: 1034 a4bc 53cb 46bd cc8a bebd a2d2 003d
000000a0: a8da f3bc 95d6 2abd 16b1 5dbd 040a cebc
000000b0: 04c2 60bc 7ce8 aabd 2dc6 09be 88cc 18bd
000000c0: b2aa 213b a790 e6bc bc78 62be 7777 4cbd
000000d0: ade8 fb3b b874 84be 6f68 e2bd fd29 b3bd
000000e0: 493c 56be 03c2 06be 6f12 27be a911 f4bc
000000f0: 75fc e2bd 9159 bebd cfc9 b03c 604e bdbd
00000100: 5e5a 9bbd 48eb 6ebc 9e8a b3bd c1df f23a
00000110: 15c3 e4bd 5e1d e13b 2375 d0bd f83c 32be
00000120: 9a7b 26be f9b7 10be 6640 52bd 9771 06bd
00000130: 201f 69bc 8160 79bd da86 bebd da53 a3bd
00000140: 06df 2fbc 725d d1bc 1385 7fbc 4b51 80bb
00000150: 7327 48bd 5c37 07be 9265 e2bd 9d4f abbd
00000160: 1653 16bc 9391 a1bd 70d5 5d3d f595 afbd
00000170: 1a61 47bd 4685 65bd 9747 81bc 7086 19be
00000180: 9a3c 73bd d468 98bd 9f80 85bd 9383 35be
00000190: 205f a8bd 96e5 6cbd 0d45 65bd d2c7 773c
000001a0: 84fa c5be 3263 2fbe 9b8c 7cbe 01f5 70bd
000001b0: e344 0c3d 280d 42bc 72df 1bbe d535 0bbe
000001c0: 9a2c 0ebe 6fc6 22be b674 e2bd f0fb ee3b
000001d0: 5463 1abc 5b24 4cbe 9bdc 8abd 482e 29bd
000001e0: a239 b0bd b2f1 19be a831 71bc da9f 5dbe
000001f0: 0a3d 14bd 317b b4bd cf72 77be 9316 bdbd
-0.017996568 -0.015878554 0.02184446 -0.08431087 -0.08319968 -0.038951315 -0.066733144 -0.011803181
-0.06855291 -0.024588134 0.007038443 -0.053326104 -0.16035491 -0.04060034 -0.07336166 -0.011018807
-0.08004324 -0.22514702 -0.13324356 -0.14070225 -0.035442777 -0.023974268 -0.05278057 -0.12484932
0.037921615 -0.07938134 -0.054204475 0.034434687 -0.020754082 -0.10634296 -0.07524939 -0.045452192
-0.3202201 -0.14160983 -0.03001207 -0.018075908 -0.020044357 -0.04853375 -0.09303817 0.031450875
-0.02976735 -0.041708548 -0.05412396 -0.02515126 -0.013718132 -0.08345124 -0.13454504 -0.03730443
0.0024668393 -0.028145147 -0.22116369 -0.049918618 0.007687649 -0.258703 -0.110550754 -0.08748243
-0.20921434 -0.13159947 -0.16315626 -0.029793577 -0.110833086 -0.09294427 0.021580605 -0.092434645
-0.075855955 -0.014582463 -0.087666735 0.0018529819 -0.111700214 0.006869956 -0.10178592 -0.1740607
-0.16258088 -0.1413268 -0.051330946 -0.03282317 -0.014228612 -0.06088305 -0.09303065 -0.07974978
-0.010734325 -0.025557254 -0.015595692 -0.003915941 -0.048865747 -0.13204712 -0.11054529 -0.083647944
-0.009175083 -0.07889094 0.054158628 -0.08573524 -0.048676588 -0.056035303 -0.015781207 -0.1499269
-0.059383966 -0.074418694 -0.06518673 -0.17725973 -0.08221269 -0.057836138 -0.055974055 0.0151233245
-0.3866769 -0.17127684 -0.24663012 -0.058827404 0.034245383 -0.011843957 -0.15221956 -0.13594754
-0.13884202 -0.15896009 -0.11057417 0.007293217 -0.009423096 -0.19935744 -0.067803584 -0.041303903
-0.086047426 -0.15033606 -0.014721312 -0.2164301 -0.036191024 -0.088125594 -0.2416489 -0.09232821

action_model._continuous_distribution.log_sigma f4 [1, 2]
00000000: 972b f5c0 017f e1c0
-7.661571 -7.0467534

action_model._continuous_distribution.mu.weight f4 [2, 128]
00000000: 4ac9 9eb9 8ecf c3ba 353a 763a 8d0c 413d
00000010: 3c64 0db9 f3ef b9bd 2a0a 61bb a1e4 c1ba
00000020: 4a29 efb9 fd2e c83a e2ab 1cbb fe86 4cbe
00000030: f7f3 8cbd 7c8b 8839 8da1 3f3b 476e 123c
00000040: 0a0a be3a 8b9e babd d501 063b 7df4 53be
00000050: b112 213b c722 95b9 39f1 29be ed0a 0f3b
00000060: 8f28 0339 06f9 7e3a d0a2 d338 050a fdba
00000070: fc5a 053b c41d 5cba 32b0 4b3b 9f34 08bb
00000080: 14fa 97be 81ac 2cba 4e83 f53a c395 4f3b
00000090: 1ea4 8e3a 0252 9d3a 13ec 03ba 5daa 213a
000000a0: 2f55 353b f0ba 6fba 7baf 1f3b 2e63 4abe
000000b0: 66aa 43ba bbb0 8e39 6acd 933a 81ae b2b9
000000c0: 24b2 a339 6c9d 003b f104 88be a4eb bf3a
000000d0: 9f02 1abb 3edb 8e3b 71bf 08ba 867b b7b8
000000e0: e8cc dd39 5801 863b 6b22 fbb8 6ddf 4c3a
000000f0: c00e 45bc 9d49 423c c385 d73a 5bfb 913b
00000100: 497f 5f3b 9c53 9e3b e8bc cfbb 284a 753b
00000110: 2a4a 0dbc cbac 203a 86a9 f3b9 7b3d be3a
00000120: 6b81 c9bd 8e0d 14bb d679 ddba 6f83 113b
00000130: 19cb 0fbb 625e 74ba efa1 b33b 1e4e 643a
00000140: 355a e63a 906d bb39 36eb 7a39 0287 453a
00000150: d915 ac3d cbe8 c6ba ef3c 8539 d5a7 30ba
00000160: 981e ddbb 6d75 10bb 78d6 90ba a839 90ba
00000170: 5c22 1e3b 2169 acba b1c2 623b 818a 83ba
00000180: 9ac1 0f3a ca7b 40ba fa7e 3dbe 0100 cbbd
00000190: 234a 6ebe 927b 4dbb 7ad3 6bb9 7076 1ebb
000001a0: 446a c2be c4d2 0abc 88bd f2bd 3451 68bb
000001b0: 0e93 cd38 ffcd 6cbb a7f4 b7ba 4a25 083b
000001c0: 245b c3b8 6b3f 3cbe de02 b439 dc5f 063a
000001d0: 2a99 5dbb 10fb 37be bd15 2dbc 6c41 1aba
000001e0: 1f6c e73a 144d 31be d5b8 73ba 0837 1ebe
000001f0: 60b9 2aba 5e0f 753b 0f91 e8bd 8a93 19ba
00000200: 2b35 e9b8 7912 2d3e 99d7 39ba f1e1 37ba
00000210: 46a6 1a3a 36cd 353d 735e 44be a544 203e
00000220: 2031 68be b51c 3bbd d316 ee39 db09 bc3c
00000230: 913c abbd 81af c23d 91db 0a3e 162c f3be
00000240: e5eb 88ba 33bb e23d eeb6 27be 6d6a 983d
00000250: 3393 363e 7d9f 383a a2dc 9e3d 7321 af3d
00000260: 2934 8c3e 4029 06ba afd9 4fbe 72ed 25bb
00000270: 4aaf d93a 888e b03d 6ade 26be 085d 1ebe
00000280: d539 54bd 92f4 19be 303c fb39 7927 233b
00000290: 8fb2 1f3e b06a c13d 29a9 f2bd deb5 803e
000002a0: cb81 e839 4a07 d43e 5a0e 2cbe 32ee 513d
000002b0: b62e 023b 7eef a9be 0b49 88be cff7 413f
000002c0: e4b6 57be 3a36 bb39 a6ce 09bd 5777 a43d
000002d0: 5f62 79be b8c4 3e3e 69aa cabc 81e7 aa3e
000002e0: 3cfc 0fbe beae 703e f7f7 59be db15 57be
000002f0: 7dbb 0c3e 5ca7 403b f3f5 6c3e f35b 013e
00000300: af45 df3b 47da 3b3b ae8d a2be bae1 e7bc
00000310: 69e7 47be c2a8 16b9 062e ffbc c32d 1d3e
00000320: da82 9d3d 6c83 4ebe 5909 b2be 54bd ca3a
00000330: 2551 a7bd 8cdb 5ebe 24a0 463e 9909 2cbe
00000340: f134 273b 5fe3 00bb fb5e ca3d fb3b 9b3a
00000350: 61b1 17bb 18b1 ec3d 79cc 1c3e 16dc d33a
00000360: 5dfa 14be 575a 3fbe ddf6 033e 0c33 b7bd
00000370: 1fe8 d6ba ade4 c839 1fa1 7d3e 7dd5 23be
00000380: 10b1 03be d865 23be 2f8a a83d 4e23 643d
00000390: 6b7a c1bc fcde 1c3e d5c7 47be a307 13be
000003a0: 5b59 753d 6112 0bbe d82b 8d3e aeae 153e
000003b0: 7abd 2c3e ebab cbbd 42b8 21be 44fd 9b3e
000003c0: 081b 08be b344 2a3c c01a 76ba 505f 54be
000003d0: 7b06 333e fbab b0bd e597 e3bd bea5 b93d
000003e0: 1f0c 763a 46d1 853a ce9f 1ebe dabd 34be
000003f0: 919c 95ba c05a 053e 5f54 4ebd 3f5d 263e
-0.0003028608 -0.0014939175 0.0009392829 0.04713111 -0.00013484148 -0.0907897 -0.0034338334 -0.0014792868
-0.00045616395 0.0015272793 -0.002390616 -0.1997337 -0.0688247 0.00026043865 0.002924058 0.008937425
0.0014498841 -0.09112271 0.002044787 -0.20698734 0.0024577791 -0.00028445406 -0.16595925 0.002182658
0.00012508243 0.00097264384 0.0001009159 -0.0019305354 0.002034842 -0.00083967694 0.0031080362 -0.0020783318
-0.29682982 -0.00065869844 0.0018731148 0.0031674958 0.0010882651 0.001200259 -0.0005032431 0.00061670487
0.0027669182 -0.00091449823 0.002436607 -0.19764397 -0.0007464051 0.00027216025 0.0011276428 -0.0003408082
0.00031222508 0.001962508 -0.2656627 0.001464237 -0.0023500097 0.004359632 -0.0005216515 -8.749128e-05
0.00042305072 0.0040895157 -0.000119750235 0.00078152755 -0.012027442 0.011858371 0.0016443062 0.0044550127
0.0034102967 0.0048317444 -0.006339658 0.0037428234 -0.008623639 0.0006129264 -0.00046474877 0.0014514172
-0.09839138 -0.0022591087 -0.0016897272 0.0022203585 -0.0021941124 -0.00093219255 0.0054819505 0.000870915
0.0017574491 0.0003574905 0.00023929481 0.00075350713 0.084026046 -0.0015175579 0.00025413136 -0.0006738876
-0.006748032 -0.0022042647 -0.0011050245 -0.0011003511 0.0024129367 -0.001315389 0.0034600908 -0.0010035784
0.0005483866 -0.0007342665 -0.18505469 -0.0991211 -0.23270468 -0.0031354171 -0.00022490128 -0.002417948
-0.379717 -0.008473102 -0.118525565 -0.0035448791 9.802553e-05 -0.0036133525 -0.0014034704 0.002077418
-9.315301e-05 -0.18383567 0.00034334412 0.00051259785 -0.0033813217 -0.17966866 -0.010564265 -0.00058843824
0.0017656124 -0.17314559 -0.00092972565 -0.1545068 -0.00065126084 0.0037393193 -0.11355793 -0.0005858472
-0.00011120209 0.16901578 -0.00070893165 -0.0007014564 0.00058994105 0.044385158 -0.19176655 0.15651186
-0.2267499 -0.045681674 0.00045411903 0.022953918 -0.083611615 0.09506131 0.1356032 -0.47494572
-0.0010446279 0.11070862 -0.16378376 0.07442174 0.1782959 0.00070428086 0.07756926 0.08551302
0.27383545 -0.0005117841 -0.20297883 -0.002531853 0.0016608026 0.08620936 -0.16295782 -0.15465176
-0.051812965 -0.15034702 0.00047919294 0.0024895354 0.15595458 0.09444177 -0.11848671 0.25138754
0.00044347192 0.4141181 -0.1680235 0.05125255 0.0019864268 -0.3319053 -0.26618227 0.7576875
-0.21065861 0.0003570782 -0.03364434 0.08030575 -0.24353932 0.1862973 -0.024739461 0.33379748
-0.14061064 0.23504159 -0.21285997 -0.21004431 0.13743396 0.002939663 0.23140697 0.12632732
0.006813727 0.002866404 -0.31748718 -0.028305877 -0.1952187 -0.00014367982 -0.031149875 0.15349488
0.076909736 -0.20167321 -0.34772757 0.0015467801 -0.08169774 -0.21763438 0.19397026 -0.16800536
0.0025513733 -0.0019666774 0.09881397 0.0011843437 -0.0023146498 0.115572155 0.15312375 0.0016163613
-0.14548631 -0.18686806 0.1288714 -0.08945283 -0.0016396082 0.0003831735 0.24768494 -0.15999408
-0.12860513 -0.15956819 0.082294814 0.05569773 -0.023617944 0.15319437 -0.19509824 -0.14358382
0.05989967 -0.1358123 0.27572513 0.14617416 0.16869155 -0.099449 -0.15792945 0.30466664
-0.13291562 0.010392356 -0.00093881413 -0.20739484 0.17482941 -0.08626553 -0.11112956 0.09064816
0.00093859615 0.0010209463 -0.15490648 -0.17650548 -0.0011414458 0.130229 -0.05037343 0.16246508

action_model._continuous_distribution.mu.bias f4 [2]
00000000: 331b 8e3e d86d e6bc
0.27755126 -0.02812855
