ML Racing/Assets/NNModels/default.onnx (onnx, 116484 bytes, 7 tensors)

network_body._body_endoder.seq_layers.0.weight f4 [128, 91]
0	0xbf1db924	-0.6161063
1	0x3e4909a9	0.19632591
2	0x3def2588	0.116770804
3	0xbe2eab18	-0.17057455
4	0x3e8d9a08	0.2765658
5	0x3d85a04f	0.06524717
6	0xbe6ed2b8	-0.2332257
7	0xbf81f87c	-1.0153956
8	0x3e3d25cb	0.18471448
9	0xbe31187c	-0.17294496
10	0x3e485cc0	0.19566631
11	0xbe2523c6	-0.16126928
12	0xbe184d87	-0.14873324
13	0xbe6f51d9	-0.23371066
14	0x3f31849e	0.6934298
15	0xbe17952d	-0.14803
16	0x3da70cad	0.081567146
17	0x3d05d55a	0.03267417
18	0xbf31db36	-0.69475114
19	0xbe3c69c5	-0.18399723
20	0x3ac21c69	0.0014809492
21	0xbc07fa1d	-0.008299378
22	0xbef6c367	-0.48195955
23	0xbde944a9	-0.11390049
24	0x3ad598f3	0.0016296193
25	0xbdffce78	-0.12490553
26	0xbcc0c618	-0.023531958
27	0xbeaa8a4e	-0.33308643
28	0x3de24161	0.11047626
29	0x3cc56ee2	0.024100725
30	0xbee58afe	-0.44832605
31	0xbe1da96f	-0.15396665
32	0x3f3200f7	0.6953272
33	0xbc2e7dfd	-0.010650155
34	0xbf908a34	-1.1292176
35	0xbe9fe548	-0.31229615
36	0x3d5c0f60	0.0537256
37	0xbe2c9f6a	-0.16857687
38	0x3cab743f	0.020929454
39	0xbd1b77d3	-0.03795607
40	0x3de98e15	0.11404053
41	0x3bb71b54	0.0055879746
42	0x3d1d8f28	0.038466603
43	0xbd319fa5	-0.04336514
44	0x3eb0db0b	0.34542117
45	0xbf5791ec	-0.84207034
46	0xbd9a805b	-0.07544013
47	0xbd8fa47e	-0.07013796
48	0x3e5eb3e0	0.21748304
49	0x3daab0e7	0.08334523
50	0xbc96326b	-0.018334588
51	0xbf6ee71a	-0.93321383
52	0x3dab151a	0.08353634
53	0xbce826ab	-0.02833875
54	0xbdf44f09	-0.11929137
55	0xbd81d46c	-0.063393444
56	0x3eb8dd97	0.3610656
57	0xbe0b710a	-0.1361734
58	0x3ef87140	0.48523903
59	0xbeaa3385	-0.3324243
60	0xbef785e5	-0.4834434
61	0x3e036a6b	0.12833564
62	0x3ea0d981	0.31415942
63	0xbeba7553	-0.36417636
64	0x3daf00b4	0.08545056
65	0x3e52d4be	0.20588967
66	0xbeb8efcb	-0.36120448
67	0xbf2a0b18	-0.6642318
68	0xbed2cf27	-0.4117367
69	0x3e1707c9	0.14749064
70	0x3caf54eb	0.021402797
71	0xbda86c2b	-0.082237564
72	0xbe812d6f	-0.25229976
73	0x3ec22668	0.37919927
74	0xbf1279cb	-0.5721709
75	0xbeaf5f53	-0.34252414
76	0xbe1494ab	-0.14509837
77	0x3e672cd1	0.2257569
78	0xbf0fa6b3	-0.5611374
79	0xbdfa5e3f	-0.12225007
80	0x3daa10e8	0.08304006
81	0x3dcee07c	0.10101411
82	0x3d989cba	0.07451768
83	0x3d8d8a11	0.069111
84	0x3e37301f	0.1788945
85	0x3e8e93f9	0.2784727
86	0x3df560fb	0.11981388
87	0xbd493ff7	-0.049133267
88	0x3ef1cad6	0.47225064
89	0x3de133d5	0.10996214
90	0xbec6642e	-0.38748306
91	0xbeb8e72d	-0.36113873
92	0x3e85fb3c	0.2616824
93	0xbe229591	-0.15877368
94	0xbebbc16e	-0.36671013
95	0xbea34c79	-0.31894282
96	0xbaa0f722	-0.0012280683
97	0x3cf01733	0.029307937
98	0x3c9bd641	0.019023063
99	0x3ec8b31d	0.39199153
100	0xbe1153a5	-0.14192064
101	0xbec58111	-0.38575032
102	0xbe03dd8e	-0.12877485
103	0x3cc86f47	0.024467124
104	0x3dc4cb8e	0.096091375
105	0xbe38f6ef	-0.18062948
106	0xbe3a3ad0	-0.18186498
107	0x3e12bc81	0.14329721
108	0x3daafbde	0.08348821
109	0xbe5fa598	-0.21840513
110	0xbe84bd70	-0.2592578
111	0xbdc2d5ed	-0.09513459
112	0xbd3cfc7a	-0.046139218
113	0x3e362851	0.17788817
114	0x3e7c14ca	0.24617305
115	0xbf12e3c4	-0.5737879
116	0x3d194baf	0.037425693
117	0x3e45d011	0.19317652
118	0xbe11cb98	-0.14237821
119	0x3d86a42f	0.06574284
120	0xbda5d65c	-0.080975264
121	0x3e6b8c09	0.23002638
122	0xbd0fc6de	-0.035101764
123	0x3db129d5	0.08650557
124	0xbe4f8d52	-0.20268753
125	0x3eb75f32	0.35814816
126	0xbdcc732b	-0.09982904
127	0x3df52bf6	0.119712755
128	0xbd1042d0	-0.035219967
129	0x3e232b2e	0.1593444
130	0x3cfd6724	0.03093297
131	0x3ca2e6fa	0.019885529
132	0xbe2dba3c	-0.16965574
133	0xbd11083b	-0.03540824
134	0xbdda46f4	-0.106580645
135	0x3e5b484d	0.214143
136	0xbeb676ee	-0.3563761
137	0xbca90043	-0.020630008
138	0x3dae5cb4	0.085137755
139	0xbea06f62	-0.31334978
140	0x3e5bc90b	0.2146341
141	0x3f2154ca	0.6302
142	0x3dfff2d8	0.12497491
143	0xbe42007f	-0.18945502
144	0x3de1b7e3	0.11021402
145	0x3dbde948	0.092730105
146	0x3e2d54e3	0.16926913
147	0xbcbff913	-0.023434198
148	0x3d8bfe36	0.06835596
149	0x3ee0e6b6	0.43926018
150	0x3db1559c	0.08658907
151	0xbbd8e189	-0.0066186828
152	0x3e347cdb	0.17625754
153	0xbee74573	-0.45170173
154	0xbe81d7d7	-0.25359985
155	0x3c45e917	0.012079499
156	0x3e160965	0.14652021
157	0xbe1144a8	-0.14186347
158	0x3e9fed99	0.3123596
159	0xbdfce0e1	-0.1234758
160	0xbe2d39f4	-0.16916639
161	0x3ecc22c4	0.39870274
162	0xbe026a90	-0.12735963
163	0x3da5cc5f	0.08095621
164	0xbccacf5f	-0.024757085
165	0x3b113c65	0.0022161242
166	0xbcc7efc0	-0.024406314
167	0xbda10105	-0.078615226
168	0x3e2dcbdb	0.16972296
169	0xbb34c6a1	-0.0027584212
170	0xbea9cb7d	-0.33163062
171	0xbe37b8e5	-0.17941625
172	0x3d09a67e	0.033606045
173	0x3e8703f9	0.26370218
174	0xbdc07e4b	-0.093990885
175	0xbe03ac2b	-0.12858646
176	0x3e04aa26	0.12955531
177	0x3be2b5b2	0.0069186324
178	0xbe8354a6	-0.2565052
179	0x3ea372ca	0.31923515
180	0x3dc034fd	0.09385107
181	0x3f1e756b	0.61897916
182	0x3edb5993	0.42841777
183	0xbeea906c	-0.4581331
184	0xbe0b5b29	-0.13608994
185	0x3d8f538c	0.06998357
186	0xbe8f295a	-0.27961236
187	0xbda7c089	-0.0819102
188	0x3ebd249c	0.36941993
189	0x3daf0340	0.08545542
190	0xbe01158e	-0.12605879
191	0xbe48f28a	-0.19623771
192	0xbd125946	-0.03572967
193	0x3ed34afb	0.41268143
194	0xbdd88e54	-0.10574022
195	0x3d8e8703	0.06959345
196	0x3c8ff19f	0.017571269
197	0xbd664770	-0.05622047
198	0xbe666ce8	-0.22502482
199	0x3e93786a	0.28802806
200	0x3e1122f4	0.1417349
201	0x3e4ba64c	0.19887656
202	0xbd3e18c8	-0.046410352
203	0xbed783dc	-0.42092788
204	0x3d50acb8	0.050945967
205	0x3d169e02	0.03677178
206	0x3bf1848f	0.0073705385
207	0xbebd9bab	-0.37032828
208	0xbe01ecd8	-0.12688005
209	0x3e240ab1	0.16019703
210	0x3e6edc15	0.23326142
211	0xbebe9835	-0.372255
212	0xbe520a70	-0.20511794
213	0x3eb19fcc	0.34692228
214	0x3e12945a	0.14314404
215	0xbd9ef8c5	-0.07762293
216	0xbe031390	-0.12800431
217	0xbdf8fe6b	-0.121579014
218	0xbe0bb5d1	-0.13643576
219	0xbd8f1a07	-0.06987386
220	0xbe0261ce	-0.12732622
221	0xbc7b1349	-0.015324422
222	0xbc79c6f3	-0.015245187
223	0xbc9d173f	-0.019176124
224	0xbddde6ef	-0.10835063
225	0x3d92ea65	0.071736135
226	0xbe7409ea	-0.23831907
227	0x3ec7c359	0.39016226
228	0xbee237d1	-0.4418321
229	0x3e33a82a	0.17544618
230	0xbc71b036	-0.014751485
231	0xbd9f1919	-0.07768459
232	0x3e0d00e0	0.13769865
233	0x3cd0b0f8	0.02547501
234	0x3bdd9a35	0.0067627677
235	0x3e58093b	0.21097271
236	0xbe550871	-0.20804001
237	0x3e604a9b	0.2190346
238	0xbd02d643	-0.031942617
239	0x3e35af12	0.17742565
240	0xbf03b650	-0.5145006
241	0xbe050bbc	-0.12992758
242	0xbd5fda22	-0.054651387
243	0x3e66a7fa	0.22525015
244	0xbef5b903	-0.47992715
245	0xbe5dc134	-0.21655732
246	0xbd2a588d	-0.041588355
247	0xbb5a2b52	-0.003328998
248	0x3e201bce	0.15635607
249	0xbe9a3a8d	-0.30122796
250	0xbe1b6633	-0.15175705
251	0xbe91286c	-0.28351152
252	0x3d3e52ef	0.04646581
253	0x3e84eb46	0.2596075
254	0xbe57c862	-0.21072534
255	0x3e720526	0.23634776

network_body._body_endoder.seq_layers.0.bias f4 [128]
0	0x3d5fb00c	0.05461125
1	0xbc8b7558	-0.017023727
2	0xbcc2d0b3	-0.023781156
3	0xbda7f064	-0.08200148
4	0xbc67b90b	-0.014143239
5	0xbd25aa7b	-0.040445786
6	0xbd415313	-0.047198366
7	0x3d64eae7	0.055888083
8	0x3c96dce6	0.01841588
9	0xbca79bd4	-0.020460047
10	0x3dedf315	0.1161863
11	0x3d18dbbc	0.03731893
12	0x3aaad2f9	0.0013032845
13	0x3c5e781b	0.01357844
14	0x3db53c5f	0.088494055
15	0xbc740de1	-0.014895887
16	0x3d1f3085	0.03886463
17	0xbd0b08c4	-0.033943906
18	0xbccf65ee	-0.025317159
19	0x3c0d3511	0.008618609
20	0xbbfac501	-0.007652879
21	0xbd05eaa5	-0.032694478
22	0x3d5a2ffb	0.053268414
23	0x3d2e541a	0.042560674
24	0xbcfe8838	-0.031070814
25	0x3c3eb959	0.01164087
26	0x3d78ea21	0.060770158
27	0x3cdd2a75	0.026997784
28	0xbc1efa43	-0.009703222
29	0xbc838d60	-0.016058624
30	0xbce5e92d	-0.028065288
31	0xbcd06965	-0.025440881
32	0x3b444797	0.0029949897
33	0x3c7439c2	0.014906349
34	0x3bdce1ba	0.006740776
35	0xbc63979e	-0.013891129
36	0xbb2023ce	-0.0024435404
37	0x3d557ca6	0.052120827
38	0xbd7cf4c3	-0.06175686
39	0xbca01ef2	-0.019546006
40	0x3c85cf00	0.016334057
41	0xbc9ee79b	-0.019397547
42	0xbdc09b66	-0.0940464
43	0x3c546869	0.012964346
44	0xbd7eed9d	-0.062238324
45	0x3da5520c	0.0807229
46	0xbc96a382	-0.018388513
47	0xbd476d5a	-0.04868827
48	0x3cecd301	0.028909208
49	0x3d1e09df	0.038583633
50	0x3cfb0746	0.030643117
51	0xbcd243e3	-0.025667137
52	0xbd4c5a1f	-0.049890634
53	0x3ccfe7d8	0.025379106
54	0x3d285154	0.041093186
55	0xbbf4dc3b	-0.0074725426
56	0x3d3d3508	0.046193153
57	0x3c953302	0.018212799
58	0x3d859d12	0.065240994
59	0xbcd89f3e	-0.02644312
60	0x3c3722a1	0.01117769
61	0x3d54d635	0.051962096
62	0x39bfe319	0.0003659956
63	0xbd07b8b9	-0.03313515
64	0xbca2ba0a	-0.019864101
65	0x3daaada2	0.08333899
66	0x3d909433	0.07059517
67	0xbc1ad947	-0.009451217
68	0x3cea8cf4	0.028631665
69	0x3d55dea7	0.05221429
70	0xbbb8f8e3	-0.005644904
71	0xbd0d6675	-0.03452154
72	0xbc97543e	-0.018472787
73	0x3d4dbe5e	0.050230376
74	0x3d0be34a	0.034152307
75	0x3b3b35d0	0.002856601
76	0xbb0bd7c5	-0.0021338325
77	0x3cd8bb22	0.02645642
78	0x3d3d7324	0.046252385
79	0xbdc7d74c	-0.097578615
80	0x3dada64f	0.084789865
81	0xbbe01f18	-0.006839644
82	0xba2824fb	-0.0006414202
83	0x3d52f447	0.051502492
84	0xbcc3d8c0	-0.023907065
85	0x3d0201c8	0.03173998
86	0x3dd038e7	0.10167103
87	0xbbbbdc7e	-0.005733072
88	0xbcbdfae8	-0.02319093
89	0x3baf15cf	0.005343176
90	0x3d594f06	0.05305388
91	0xbc1f0fa7	-0.009708322
92	0xbbeaf9f3	-0.0071709096
93	0xbcbdf64d	-0.023188734
94	0x3d533827	0.051567223
95	0x3d786771	0.060645524
96	0xbc36480a	-0.011125574
97	0xbc71d107	-0.014759309
98	0xbdaacb16	-0.08339517
99	0x3c88411f	0.016632615
100	0xbd9d0013	-0.0766603
101	0xbc8568f7	-0.016285403
102	0x3d48f91e	0.0490657
103	0xbcb2fdc5	-0.021849522
104	0x3cf77351	0.030206354
105	0xbd118e1c	-0.035535917
106	0xbcf98fa5	-0.030464003
107	0xbd148582	-0.036260135
108	0x3cc10581	0.023562195
109	0x3b8c2268	0.0042765625
110	0x3d88e90b	0.066850744
111	0x3d35e377	0.04440638
112	0xbc657d69	-0.014006951
113	0xbd4b949f	-0.049702283
114	0xbba448b7	-0.005013551
115	0x3d205421	0.03914273
116	0x3ca3927b	0.019967308
117	0xbd8a4975	-0.06752292
118	0xbc26c0be	-0.010177789
119	0xbc68626a	-0.01418362
120	0x3da1bcbc	0.07897326
121	0xbced11c7	-0.028939141
122	0x3bb921de	0.0056497892
123	0x3c437f51	0.01193221
124	0x3cae88b9	0.021305429
125	0xbcfc0c90	-0.030767709
126	0x3c983608	0.018580452
127	0x3d5ea38a	0.05435518

network_body._body_endoder.seq_layers.2.weight f4 [128, 128]
0	0xbe71cd7d	-0.23613544
1	0x3d06dec2	0.032927282
2	0xbe68b209	-0.22724165
3	0x3d692b27	0.05692592
4	0x3cbaa883	0.02278543
5	0x3c98fa9d	0.01867419
6	0x3d7d32a3	0.06181587
7	0xbdaaa193	-0.08331599
8	0x3ea6da29	0.32588318
9	0x3d923571	0.071390994
10	0xbdbe5048	-0.09292656
11	0x3e2d6c3d	0.16935821
12	0xbe027085	-0.12738235
13	0x39f8c08e	0.0004744571
14	0xbe1bcc1e	-0.15214583
15	0xbe88679c	-0.26641548
16	0xbcc3f566	-0.023920726
17	0xbe8861a7	-0.26637003
18	0xbe3d4496	-0.18483195
19	0xbea069f6	-0.31330842
20	0xbe2bac07	-0.16764842
21	0xbda0af8f	-0.07845985
22	0x3e1a0a6e	0.15043041
23	0x3c80fe78	0.01574634
24	0xbe9aa1d0	-0.30201578
25	0xbdf5256d	-0.11970029
26	0x3d3ccc9d	0.046093572
27	0x3cc38628	0.023867682
28	0xbd59eef5	-0.053206403
29	0xbeee2fcf	-0.4652085
30	0xbe92edbe	-0.28697008
31	0xbd8aae55	-0.067715324
32	0xbd5f1f65	-0.0544733
33	0xbd1e89bd	-0.038705576
34	0xbe69585c	-0.22787613
35	0xbe7766a4	-0.24160248
36	0x3d540027	0.051757958
37	0xbd3a9b3a	-0.04555819
38	0x3e4f7372	0.20258883
39	0xbd04b157	-0.032395687
40	0x3df36f53	0.11886468
41	0xbe9166c5	-0.2839872
42	0xbdf45801	-0.11930848
43	0x3e34adc2	0.17644408
44	0x3dcf5284	0.101231605
45	0xbd3ee2e4	-0.0466031
46	0x3e9d7526	0.3075344
47	0x3e229624	0.15877587
48	0xbe1c2f8b	-0.15252511
49	0xbd4c6150	-0.049897492
50	0x3e0cf763	0.13766246
51	0xbe7df9c0	-0.24802303
52	0x3e20d9d7	0.157081
53	0xbee3cafc	-0.44490802
54	0x3d8ea786	0.06965546
55	0xbe0c1df2	-0.13683298
56	0x3ee96eca	0.45592338
57	0x3cd2f7a3	0.025752848
58	0xbc98e798	-0.01866512
59	0xbe5ada81	-0.21372415
60	0xbe871844	-0.263857
61	0xbb8c21e4	-0.004276501
62	0xbb8982ea	-0.0041965144
63	0x3d84c8ce	0.06483613
64	0x3d1e8582	0.03870154
65	0x3da172da	0.07883234
66	0x3e6e5ff4	0.2327879
67	0x3cb5cd84	0.022192724
68	0x3da14595	0.078746
69	0x3d4ed619	0.05049715
70	0x3e6d87cb	0.23196332
71	0xbc2a09cd	-0.010378313
72	0xbeba2675	-0.36357465
73	0xbe1b4fb7	-0.15167128
74	0xbe0b86cd	-0.13625641
75	0x3d88d704	0.06681636
76	0x3ea3d425	0.3199779
77	0xbe5f5689	-0.21810354
78	0x3d05777d	0.032584656
79	0x3dc52dc5	0.096278705
80	0x3db60062	0.08886792
81	0x3e361459	0.177812
82	0x3df3c435	0.11902658
83	0x3e3b8a2f	0.18314432
84	0xbef99d70	-0.48752928
85	0x3eb29eb1	0.34886697
86	0x3d0c1607	0.034200694
87	0xbdd74b9a	-0.10512467
88	0x3e294333	0.1652954
89	0x3dd88fda	0.105743125
90	0x3d5e3286	0.0542474
91	0x3e1e1aab	0.1543986
92	0xbdbff387	-0.09372621
93	0xbe7a1c17	-0.24424778
94	0x3dfbed8d	0.123011686
95	0x3d42e032	0.04757709
96	0x3c1d2016	0.009590169
97	0xbeb254a8	-0.34830213
98	0xbda53c20	-0.080681086
99	0x3da7789d	0.08177302
100	0x3e917e0c	0.2841648
101	0xbcf53d9d	-0.029936606
102	0xbd3be147	-0.045869138
103	0xbc92ce1a	-0.017920543
104	0xbdc0815e	-0.09399675
105	0x3ced52d8	0.028970167
106	0xbd2fbdbb	-0.04290555
107	0x3e332690	0.17495179
108	0xbe96efb0	-0.29479742
109	0x3dc3b2e7	0.09555607
110	0xbe836bbe	-0.25668138
111	0xbe2b6d59	-0.16740932
112	0x3e3ebfc7	0.18627845
113	0x3e09006f	0.13379072
114	0xbe9592ab	-0.2921346
115	0xbd0bb303	-0.034106266
116	0xbccf7c88	-0.025327936
117	0xbeb4436d	-0.35207692
118	0xbda6226b	-0.081120335
119	0xbde7df88	-0.11321932
120	0xbdcd9af0	-0.100393176
121	0x3dd0ae8c	0.10189542
122	0xbe405e36	-0.18785939
123	0xbccf88e0	-0.025333822
124	0xbdd3d3ed	-0.10343156
125	0xbcad9637	-0.021189792
126	0x3e48b6fb	0.19601052
127	0x3d39f4b5	0.045399386
128	0xbedbec83	-0.42953882
129	0xbdd7c979	-0.10536475
130	0xbda1bca3	-0.07897308
131	0xbe229a6f	-0.15879224
132	0xbec65ef4	-0.38744318
133	0x3ec03620	0.37541294
134	0xbecb7fd6	-0.3974597
135	0xbdade25c	-0.0849044
136	0xbe9c7d16	-0.30564183
137	0xbdbb95da	-0.09159441
138	0xbd81270b	-0.06306275
139	0xbd2f5144	-0.04280211
140	0xbb8cc89a	-0.0042963745
141	0x3dbe8430	0.093025565
142	0x3c426443	0.011864725
143	0xbe9c8135	-0.30567327
144	0x3d4d28c7	0.050087716
145	0xbda4a829	-0.080398865
146	0x3e9fa8f5	0.3118359
147	0xbf07db07	-0.53068584
148	0xbda66216	-0.08124177
149	0xbe994977	-0.29938862
150	0xbefacd11	-0.48984578
151	0x3e81b3ac	0.2533239
152	0x3e8cbdd4	0.27488577
153	0x3e58b278	0.2116183
154	0x3e4c4460	0.19947958
155	0xbe726de7	-0.23674737
156	0xbd88bb7b	-0.06676384
157	0x3e9c8150	0.30567408
158	0x3d83ed85	0.06441788
159	0x3db2f372	0.0873784
160	0x3d844328	0.064581215
161	0xbe8f83b2	-0.28030163
162	0xbdac8eae	-0.084256515
163	0xbc704b43	-0.014666381
164	0xbe9369ad	-0.28791562
165	0xbe1b2849	-0.15152086
166	0xbe85ac5c	-0.26108062
167	0x3cc0abed	0.02351948
168	0xbe50a937	-0.2037705
169	0x3dcfe99e	0.10151981
170	0xbe775edd	-0.24157281
171	0xbe51536c	-0.20441979
172	0xbcf5de96	-0.030013364
173	0x3d399aa4	0.045313492
174	0xbecc1fac	-0.39867914
175	0xbdb56c49	-0.088585444
176	0x3ec21918	0.3790977
177	0xbe01e7f3	-0.12686138
178	0xbd89988a	-0.06718548
179	0x3c3564c3	0.011071387
180	0xbedcea9c	-0.43147743
181	0xbdab63b8	-0.08368629
182	0xbe0109f6	-0.12601456
183	0xbe40e96e	-0.18839046
184	0xbc972d2f	-0.018454162
185	0xbd9249d9	-0.071429916
186	0x3da1acc5	0.07894281
187	0xbe65297e	-0.2237911
188	0xbe18d153	-0.14923601
189	0x3db8bf15	0.09020821
190	0x3dc3962a	0.09550126
191	0x3ed25531	0.4108062
192	0xbd72ddb6	-0.05929347
193	0xbd89496f	-0.067034595
194	0x3e0342f8	0.12818515
195	0xbde81569	-0.11332209
196	0xbdd54890	-0.10414231
197	0x3de7e83c	0.11323592
198	0xbe91412f	-0.28370044
199	0xbf3b72fc	-0.7322233
200	0xbdb58be3	-0.08864572
201	0xbdec7c64	-0.11547163
202	0x3c07b111	0.008281962
203	0x3de111ce	0.10989724
204	0x3e63911b	0.22223322
205	0xbc67d6e2	-0.014150353
206	0x3dabfcc5	0.08397821
207	0xbebf9d69	-0.37424782
208	0x3d08c548	0.033391267
209	0xbe23fd81	-0.16014673
210	0xbe5dd1a5	-0.21662004
211	0x3ddf3640	0.10899019
212	0xbd2c6493	-0.042088103
213	0x3dac3d2f	0.08410107
214	0xbaedb939	-0.0018136866
215	0xbe349aa4	-0.17637116
216	0xbd27ca46	-0.040964387
217	0xbe3aba24	-0.1823507
218	0xbe14966b	-0.14510505
219	0xbb36ce75	-0.0027894054
220	0xbe8ef5ab	-0.27921805
221	0x3d0ce412	0.034397192
222	0x3cfda9e1	0.030964794
223	0xbd9d7913	-0.07689109
224	0xbeb2dfc8	-0.34936357
225	0x3d158a8c	0.03650908
226	0xbe42cdc0	-0.190238
227	0x3e8f4f83	0.2799035
228	0xbe8774cb	-0.26456293
229	0xbe33b911	-0.17551066
230	0xbe254599	-0.1613983
231	0xbe8b1141	-0.271616
232	0xbea2e5ce	-0.31815952
233	0xbe4e1648	-0.20125687
234	0xbe4cbb6a	-0.19993368
235	0xbd3bb63d	-0.045828093
236	0x3e18102e	0.14849922
237	0x3a04e9e3	0.0005070252
238	0xbdfdd725	-0.12394551
239	0x3ddb7fdd	0.10717747
240	0x3e3a4c48	0.18193161
241	0xbba18e81	-0.004930318
242	0x3e08fd67	0.13377915
243	0x3e53fb84	0.20701414
244	0xbd487ee4	-0.048949137
245	0xbec4f66a	-0.3846925
246	0xbf063363	-0.5242216
247	0xbd990c0e	-0.074730024
248	0xbd182f31	-0.03715438
249	0x3e89889f	0.26862046
250	0xbe8a2b1a	-0.2698601
251	0xbe23461b	-0.15944712
252	0xbf448e71	-0.7677985
253	0xbd8a656d	-0.06757627
254	0xbedc9836	-0.43084878
255	0xbda442f2	-0.08020581

network_body._body_endoder.seq_layers.2.bias f4 [128]
0	0xbd09567b	-0.03352974
1	0xbd498a62	-0.049204238
2	0xbd54fbca	-0.051997937
3	0xbd680018	-0.056640714
4	0xbbacc7bf	-0.005272835
5	0xbd2da5e6	-0.04239454
6	0x3d2a6a31	0.04160518
7	0xbe820651	-0.25395444
8	0xbce45988	-0.027874723
9	0xbd0e24f1	-0.0347032
10	0xbdaea24e	-0.08527051
11	0xbe19e7bc	-0.15029806
12	0xbd2eefc0	-0.042709112
13	0xbd78dfae	-0.060760193
14	0xbd04cdce	-0.032422833
15	0x3c51b1a3	0.0127987
16	0xbde40c0c	-0.1113511
17	0xbe9c86ef	-0.30571696
18	0x3cf01bcd	0.029310131
19	0xbda14f39	-0.07876439
20	0xbdfd7f68	-0.123778164
21	0xbd97903c	-0.074005574
22	0x3d19c6d1	0.03754312
23	0xbdc84130	-0.097780585
24	0x3c4668a6	0.012109911
25	0xbb222fe5	-0.0024747786
26	0xbe036d3a	-0.12834635
27	0xbdfa750e	-0.12229358
28	0xbd090131	-0.0334484
29	0xbe11abc1	-0.14225675
30	0xbe0cd023	-0.13751273
31	0xbdeb8f25	-0.11501912
32	0xbd855533	-0.06510391
33	0xbd3cc4b4	-0.04608603
34	0xbd5bbfc8	-0.053649694
35	0xbd81f56f	-0.06345641
36	0xbe92fae3	-0.28707036
37	0xbdae959d	-0.0852463
38	0xbe8eb931	-0.27875665
39	0xbddb560a	-0.1070977
40	0xbda52b97	-0.08064955
41	0xbdd08c9f	-0.10183071
42	0xbdd8448b	-0.105599485
43	0xbdda793f	-0.10667657
44	0xbcbf8682	-0.023379568
45	0xbe0b6841	-0.13613988
46	0xbd8ed0e8	-0.069734395
47	0xbd722ba2	-0.059123643
48	0x3b4374c5	0.0029824239
49	0xbe51f510	-0.2050364
50	0xbd4d9349	-0.05018929
51	0xbd341ca2	-0.04397262
52	0xbd31a190	-0.04336697
53	0xbdb2f428	-0.08737975
54	0x3d47f6e7	0.04881945
55	0x3ba2251a	0.0049482705
56	0x3d21e4ed	0.03952496
57	0xbd5a6dec	-0.053327486
58	0xbc82c129	-0.015961247
59	0xbe110143	-0.14160638
60	0xbcf8d084	-0.030372865
61	0xbde2e36d	-0.11078534
62	0xbde7b67f	-0.11314105
63	0xbde5e044	-0.11224416
64	0xbde772ad	-0.113011695
65	0xbe697a22	-0.22800496
66	0xba60209a	-0.000854978
67	0x3c601fce	0.013679458
68	0x3cd8067b	0.026370278
69	0xbd9ece97	-0.07754248
70	0xbd867a80	-0.06566334
71	0x3c258691	0.010102884
72	0xbd9b2931	-0.07576216
73	0xbd40d9d9	-0.047082756
74	0xbe2618bf	-0.16220377
75	0xbb9edff5	-0.004848475
76	0xbcebadad	-0.028769339
77	0xbd4b2876	-0.049599133
78	0xbe0ac247	-0.13550673
79	0xbd13a7de	-0.036048763
80	0xbe802cfd	-0.25034323
81	0xbc876853	-0.016529238
82	0xbd60072f	-0.05469435
83	0xbca6d052	-0.020363007
84	0xbd19e781	-0.037574295
85	0xbd569b5f	-0.052394267
86	0xba86074b	-0.0010225562
87	0x3c4b303f	0.0124016395
88	0xbd21557a	-0.039388157
89	0xbd2349e5	-0.039865393
90	0xbe1e7ef9	-0.15478124
91	0xbc0c1eb8	-0.008552246
92	0xbcf4511e	-0.029823836
93	0x3c5e7650	0.013578013
94	0xbcfbbf30	-0.030730814
95	0xbec04a1c	-0.3755654
96	0xbc0ba1e6	-0.008522486
97	0xbdbfea16	-0.0937082
98	0xbcde3bc6	-0.027128112
99	0xbdaed9d5	-0.08537642
100	0xba8e2aab	-0.0010846456
101	0x3d3bbc48	0.045833856
102	0x3bbc6717	0.005749594
103	0x3d790c25	0.060802598
104	0xbd8944fe	-0.06702612
105	0xbdff2eec	-0.124601215
106	0xbecce9b6	-0.40022057
107	0x39b9d405	0.00035443917
108	0xbd1401cc	-0.036134526
109	0xbea1deec	-0.31615388
110	0xbd23ca5b	-0.039987903
111	0xbd2b43cd	-0.041812707
112	0x3d21e7c3	0.039527666
113	0xbe03638f	-0.12830947
114	0x3c55cc2b	0.013049166
115	0xbd200ee7	-0.039076712
116	0xbdc1b893	-0.09459033
117	0xbdee28d2	-0.116288796
118	0xbd69b855	-0.05706056
119	0xbdcd8a08	-0.10036093
120	0xbcb56015	-0.022140542
121	0xbd5307fc	-0.051521286
122	0x3c66c417	0.014084837
123	0xbdb36796	-0.08759992
124	0xbce6d1ff	-0.028176306
125	0xbdfedfde	-0.12445043
126	0xbd589b69	-0.052882586
127	0xbdc23393	-0.09482493

action_model._continuous_distribution.log_sigma f4 [1, 2]
0	0xc0eaa510	-7.332649
1	0xc0dd5faf	-6.91793

action_model._continuous_distribution.mu.weight f4 [2, 128]
0	0x3b81af11	0.003957637
1	0xb92086b9	-0.00015308977
2	0xba4ce619	-0.00078162696
3	0xbb104a66	-0.0022017001
4	0x3a21742d	0.0006158974
5	0xba63a109	-0.0008683359
6	0x3a1677c1	0.00057398906
7	0xbc888620	-0.016665518
8	0x3b19bdda	0.0023459108
9	0x39d22ba6	0.00040086842
10	0x3ac4f9aa	0.0015028019
11	0xbabcdc33	-0.0014408886
12	0x3953aecb	0.00020187644
13	0xbaee6932	-0.001818931
14	0xba7891ea	-0.0009482192
15	0xbd5af964	-0.053460494
16	0x3b2e1969	0.0026565439
17	0xbe354dd2	-0.17705467
18	0x3a21344c	0.00061494554
19	0x3a0abde2	0.0005292577
20	0xbca314ef	-0.019907443
21	0xba6b5c2e	-0.00089782744
22	0xba94ee73	-0.0011362567
23	0xbb3594ea	-0.0027707168
24	0xb9f565ac	-0.00046805793
25	0x3b09752b	0.0020974379
26	0x388c5ed2	6.693382e-05
27	0x3b15a497	0.00228337
28	0x3ad1cc25	0.0016006274
29	0x398887a2	0.00026040996
30	0x3aa69831	0.0012710151
31	0xbe4fd99b	-0.20297854
32	0x3a986a08	0.001162828
33	0x3b82976a	0.003985335
34	0xba903824	-0.0011003059
35	0xbb2ada46	-0.0026070043
36	0xbe1dd609	-0.15413679
37	0xbafaeaaf	-0.0019143427
38	0xbe9348f1	-0.28766587
39	0x3a566fd6	0.0008180117
40	0xbbe63974	-0.007025892
41	0xb9e15259	-0.00042976698
42	0xbba01c9a	-0.004886222
43	0xba97f4b8	-0.0011593318
44	0x3b7daacf	0.0038706546
45	0xbe3f8ebc	-0.18706793
46	0xbb48f262	-0.003066205
47	0x3aa36365	0.0012465535
48	0xbe57b2ef	-0.21064351
49	0xbdd87996	-0.10570066
50	0xba253160	-0.0006301608
51	0xb9a827a0	-0.0003207298
52	0x3c94e8eb	0.01817747
53	0xbac9e3b1	-0.001540294
54	0x3b1c8b66	0.00238868
55	0xb8c59aeb	-9.422548e-05
56	0xbb38d1b5	-0.0028201167
57	0xbaaefda6	-0.001335074
58	0xbb518aef	-0.003197368
59	0x3b31242d	0.002702962
60	0x39973cd3	0.00028846282
61	0x3bbbdd73	0.005733186
62	0x3a0b836b	0.0005322012
63	0x3b277a41	0.0025555047
64	0xbab79d9d	-0.0014008764
65	0xbe11a8ad	-0.14224501
66	0x3ad6ff8a	0.0016403061
67	0x3b621e75	0.0034503017
68	0xbb2d1570	-0.0026410483
69	0xbb44b1b6	-0.003001315
70	0xba9302b7	-0.0011216019
71	0x3ac53c07	0.0015047797
72	0xba91bed5	-0.0011119494
73	0xba1b17a9	-0.00059163064
74	0x378cdf6c	1.679334e-05
75	0xbe5b82f7	-0.21436678
76	0xbde6d26f	-0.11270606
77	0xbaa581d2	-0.001262719
78	0xbe3388ba	-0.17532626
79	0xba28e9ef	-0.000644355
80	0xbe3b06ff	-0.18264388
81	0xb99380d5	-0.00028134012
82	0xba523064	-0.0008018075
83	0xbad63907	-0.00163439
84	0xb9b70b65	-0.0003491297
85	0xbb196945	-0.0023408693
86	0xbb2e7f43	-0.0026626147
87	0xba4420d5	-0.0007481699
88	0x3ac831da	0.0015273646
89	0xbbbbf1bd	-0.0057356046
90	0xbd7d1592	-0.06178815
91	0xbb7d2917	-0.0038629228
92	0xbb0ceb8c	-0.0021502702
93	0xbac72430	-0.001519328
94	0xbc05dd85	-0.00817049
95	0xbcba32a7	-0.022729231
96	0xbd97af9b	-0.07406541
97	0x3b355c4e	0.0027673426
98	0xbd8d7a83	-0.06908133
99	0x3b7d3db9	0.0038641526
100	0x3842ddf2	4.6459907e-05
101	0x3dc9da60	0.09856105
102	0x3b193aa1	0.0023380893
103	0x3983ff8a	0.00025176659
104	0xb9f560fd	-0.00046802303
105	0xbe6bcdde	-0.23027751
106	0xbc22a292	-0.009926455
107	0xbb3d5be6	-0.0028893887
108	0xbdba668f	-0.09101593
109	0xbd653226	-0.05595603
110	0xb70e6eb3	-8.489634e-06
111	0x3922bd36	0.0001552001
112	0x380f941b	3.423179e-05
113	0x399f3f1e	0.0003037387
114	0xba58dd4a	-0.0008272721
115	0x3a4221a8	0.0007405528
116	0xbcac8b8b	-0.021062633
117	0xbda7a6cd	-0.081861116
118	0xbe2fd301	-0.17170335
119	0xbb5115b3	-0.0031903803
120	0x3b3ae12b	0.0028515558
121	0xba19324d	-0.0005843982
122	0x3aea7e57	0.0017890435
123	0xbd183313	-0.037158083
124	0x39817506	0.00024691987
125	0xb8c0966d	-9.1832924e-05
126	0xba02524a	-0.00049713685
127	0x3a2177f1	0.0006159535
128	0xbda2c15f	-0.07947039
129	0x3e115b05	0.14194877
130	0xb9896fb3	-0.000262139
131	0xbd4eeea0	-0.05052054
132	0x3a2d1a97	0.00066033885
133	0xba11e20b	-0.0005564994
134	0x3e83f319	0.25771406
135	0x3ce9ec3f	0.028555034
136	0xbdb80336	-0.089849874
137	0xbe48ae58	-0.19597757
138	0x3e6eb0da	0.23309651
139	0x3e3ffe5a	0.18749371
140	0x3eb6e79a	0.35723573
141	0xbe3f94dc	-0.18709129
142	0xbda28179	-0.07934851
143	0xbc05a229	-0.008156338
144	0x3eaf918e	0.34290737
145	0x3d6eeb25	0.05832972
146	0xb9d5c696	-0.00040774484
147	0x3e1e7f2c	0.154782
148	0x3e14b97a	0.14523879
149	0xbe69eb7e	-0.2284374
150	0xbe8d3c78	-0.27585196
151	0xbbbd313a	-0.0057736905
152	0xb9cebfa3	-0.00039434162
153	0xb9e94411	-0.00044491937
154	0x3e1f5924	0.15561348
155	0xbe60fb3a	-0.21970835
156	0xbd1daae1	-0.03849304
157	0xbeae1c5f	-0.3400602
158	0xbe4bcd5c	-0.19902557
159	0xbc723852	-0.014783936
160	0xbdd7516a	-0.105135754
161	0x3d76bfa5	0.06024136
162	0x3bd2b731	0.0064305295
163	0xbe6aee36	-0.22942433
164	0xbd16f409	-0.036853824
165	0x3e7be0b2	0.24597433
166	0x3c107ed4	0.008819301
167	0xbe6216ef	-0.22079061
168	0x3e3539e5	0.17697866
169	0x3e5118a7	0.2041956
170	0xbe026e1e	-0.12737319
171	0x3e0f5e5a	0.14000836
172	0xbe2e6064	-0.17028958
173	0x3d3b5ab3	0.045740794
174	0xbe16f5c7	-0.14742194
175	0x3d0602d0	0.032717526
176	0x3d08e4d3	0.03342135
177	0x3c9c0da1	0.019049468
178	0x3e33b0d0	0.17547917
179	0x3d84648d	0.06464491
180	0x3be5b654	0.0070102606
181	0x3e1e2bdd	0.1544642
182	0x3e41cc98	0.18925703
183	0xbb111d87	-0.0022142844
184	0x3b20be31	0.0024527425
185	0xbe8f7b99	-0.28023985
186	0xbe85fa25	-0.26167408
187	0x3e8b6e0a	0.2723239
188	0xbe880655	-0.2656733
189	0x3e391efc	0.18078226
190	0x3e712876	0.23550591
191	0x3eac926f	0.3370547
192	0x3e60a2ee	0.21937153
193	0x3ab46dd2	0.0013765639
194	0xbd42f88e	-0.04760032
195	0xbae8421b	-0.0017719896
196	0xb99fe499	-0.00030497162
197	0x3da8288e	0.0821086
198	0xbe3c0bce	-0.18363878
199	0x391a7507	0.0001473018
200	0x3e510bc6	0.20414647
201	0xbdd54374	-0.10413256
202	0x3e655d49	0.22398867
203	0x3c4a7ed4	0.01235934
204	0x3c897735	0.016780475
205	0xbe96d5b2	-0.29459912
206	0x3d176ed6	0.036970936
207	0xbe80f12b	-0.25183997
208	0xbd3be9d0	-0.045877278
209	0xba8289a0	-0.0009959228
210	0xbce455af	-0.027872888
211	0xbe8e0e7a	-0.2774542
212	0xbe91d160	-0.28480053
213	0xbe519607	-0.20467387
214	0xbe8cf335	-0.27529302
215	0xbd85b1b6	-0.06528036
216	0x3d91f14b	0.07126101
217	0xbe1b9651	-0.1519406
218	0x3bbb04d2	0.0057073617
219	0x3ae11a72	0.0017174019
220	0x3b84443c	0.0040364545
221	0x395df418	0.00021167134
222	0x3bc04ad4	0.005868295
223	0x3d1a266d	0.037634302
224	0x3c76455d	0.015031186
225	0x3e738dd1	0.23784567
226	0xbbd14de6	-0.00638746
227	0x3ce9a11a	0.028519202
228	0xb9d8fee2	-0.00041388633
229	0x3be0c1cb	0.0068590394
230	0xb9aa8783	-0.0003252589
231	0x3a873e00	0.001031816
232	0x3e6ff5ae	0.23433563
233	0xbd629953	-0.055322003
234	0xbd0b36ce	-0.033987813
235	0xb85c2b60	-5.2492484e-05
236	0x3dbfc7c4	0.09364274
237	0xbd7f34a1	-0.06230605
238	0x3af48de9	0.0018658015
239	0xbe9ae412	-0.3025213
240	0x3e791648	0.24324906
241	0x3ea3f27e	0.32020944
242	0xbead0828	-0.33795285
243	0x3e672349	0.22572054
244	0xbb2a82a6	-0.0026017814
245	0xbd9d5e0e	-0.07683955
246	0xbc4a89eb	-0.012361984
247	0x3e7cb31d	0.24677701
248	0x3ec0a466	0.37625426
249	0xbde800e0	-0.11328292
250	0xbb0597cb	-0.0020384665
251	0x3d8ed1b8	0.069735944
252	0xba3af120	-0.00071312673
253	0xbe22db10	-0.15903878
254	0x3e006923	0.12540106
255	0x3e637cfc	0.22215647

action_model._continuous_distribution.mu.bias f4 [2]
0	0x3e8aa0bc	0.27075756
1	0xbc0b9a27	-0.0085206395
